program(1.3)
[buildInfo = dict<string, string>({{"coremlc-component-MIL", "3510.2.1"}, {"coremlc-version", "3500.32.1"}})]
{
    func main<ios18>(tensor<int32, [?, ?]> attention_mask, tensor<int32, [?, ?]> input_ids) [FlexibleShapeInformation = tuple<tuple<string, dict<string, tensor<int32, [?]>>>, tuple<string, dict<string, list<tensor<int32, [2]>, ?>>>>((("DefaultShapes", {{"attention_mask", [1, 32]}, {"input_ids", [1, 32]}}), ("RangeDims", {{"attention_mask", [[1, 64], [32, 512]]}, {"input_ids", [[1, 64], [32, 512]]}})))] {
            tensor<int32, [1, 512]> model_embeddings_token_type_ids = const()[name = string("model_embeddings_token_type_ids"), val = tensor<int32, [1, 512]>(BLOBFILE(path = string("@model_path/weights/weight.bin"), offset = uint64(64)))];
            tensor<int32, [1, 512]> model_embeddings_position_ids = const()[name = string("model_embeddings_position_ids"), val = tensor<int32, [1, 512]>(BLOBFILE(path = string("@model_path/weights/weight.bin"), offset = uint64(2176)))];
            tensor<fp32, [30522, 384]> model_embeddings_word_embeddings_weight_quantized = constexpr_blockwise_shift_scale(data = tensor<int8, [30522, 384]>(BLOBFILE(path = string("@model_path/weights/weight.bin"), offset = uint64(4288))), scale = tensor<fp32, [30522, 1]>(BLOBFILE(path = string("@model_path/weights/weight.bin"), offset = uint64(11724800))))[name = string("model_embeddings_word_embeddings_weight_quantized")];
            tensor<fp32, [2, 384]> model_embeddings_token_type_embeddings_weight = const()[name = string("model_embeddings_token_type_embeddings_weight"), val = tensor<fp32, [2, 384]>(BLOBFILE(path = string("@model_path/weights/weight.bin"), offset = uint64(11846976)))];
            tensor<fp32, [512, 384]> model_embeddings_position_embeddings_weight_quantized = constexpr_blockwise_shift_scale(data = tensor<int8, [512, 384]>(BLOBFILE(path = string("@model_path/weights/weight.bin"), offset = uint64(11850112))), scale = tensor<fp32, [512, 1]>(BLOBFILE(path = string("@model_path/weights/weight.bin"), offset = uint64(12046784))))[name = string("model_embeddings_position_embeddings_weight_quantized")];
            tensor<fp32, [384]> model_embeddings_LayerNorm_bias = const()[name = string("model_embeddings_LayerNorm_bias"), val = tensor<fp32, [384]>(BLOBFILE(path = string("@model_path/weights/weight.bin"), offset = uint64(12048896)))];
            tensor<fp32, [384]> model_embeddings_LayerNorm_weight = const()[name = string("model_embeddings_LayerNorm_weight"), val = tensor<fp32, [384]>(BLOBFILE(path = string("@model_path/weights/weight.bin"), offset = uint64(12050496)))];
            tensor<fp32, [384]> model_encoder_layer_0_attention_self_query_bias = const()[name = string("model_encoder_layer_0_attention_self_query_bias"), val = tensor<fp32, [384]>(BLOBFILE(path = string("@model_path/weights/weight.bin"), offset = uint64(12052096)))];
            tensor<fp32, [384, 384]> model_encoder_layer_0_attention_self_query_weight_quantized = constexpr_blockwise_shift_scale(data = tensor<int8, [384, 384]>(BLOBFILE(path = string("@model_path/weights/weight.bin"), offset = uint64(12053696))), scale = tensor<fp32, [384, 1]>(BLOBFILE(path = string("@model_path/weights/weight.bin"), offset = uint64(12201216))))[name = string("model_encoder_layer_0_attention_self_query_weight_quantized")];
            tensor<fp32, [384]> model_encoder_layer_0_attention_self_key_bias = const()[name = string("model_encoder_layer_0_attention_self_key_bias"), val = tensor<fp32, [384]>(BLOBFILE(path = string("@model_path/weights/weight.bin"), offset = uint64(12202816)))];
            tensor<fp32, [384, 384]> model_encoder_layer_0_attention_self_key_weight_quantized = constexpr_blockwise_shift_scale(data = tensor<int8, [384, 384]>(BLOBFILE(path = string("@model_path/weights/weight.bin"), offset = uint64(12204416))), scale = tensor<fp32, [384, 1]>(BLOBFILE(path = string("@model_path/weights/weight.bin"), offset = uint64(12351936))))[name = string("model_encoder_layer_0_attention_self_key_weight_quantized")];
            tensor<fp32, [384]> model_encoder_layer_0_attention_self_value_bias = const()[name = string("model_encoder_layer_0_attention_self_value_bias"), val = tensor<fp32, [384]>(BLOBFILE(path = string("@model_path/weights/weight.bin"), offset = uint64(12353536)))];
            tensor<fp32, [384, 384]> model_encoder_layer_0_attention_self_value_weight_quantized = constexpr_blockwise_shift_scale(data = tensor<int8, [384, 384]>(BLOBFILE(path = string("@model_path/weights/weight.bin"), offset = uint64(12355136))), scale = tensor<fp32, [384, 1]>(BLOBFILE(path = string("@model_path/weights/weight.bin"), offset = uint64(12502656))))[name = string("model_encoder_layer_0_attention_self_value_weight_quantized")];
            tensor<fp32, [384]> model_encoder_layer_0_attention_output_dense_bias = const()[name = string("model_encoder_layer_0_attention_output_dense_bias"), val = tensor<fp32, [384]>(BLOBFILE(path = string("@model_path/weights/weight.bin"), offset = uint64(12504256)))];
            tensor<fp32, [384, 384]> model_encoder_layer_0_attention_output_dense_weight_quantized = constexpr_blockwise_shift_scale(data = tensor<int8, [384, 384]>(BLOBFILE(path = string("@model_path/weights/weight.bin"), offset = uint64(12505856))), scale = tensor<fp32, [384, 1]>(BLOBFILE(path = string("@model_path/weights/weight.bin"), offset = uint64(12653376))))[name = string("model_encoder_layer_0_attention_output_dense_weight_quantized")];
            tensor<fp32, [384]> model_encoder_layer_0_attention_output_LayerNorm_bias = const()[name = string("model_encoder_layer_0_attention_output_LayerNorm_bias"), val = tensor<fp32, [384]>(BLOBFILE(path = string("@model_path/weights/weight.bin"), offset = uint64(12654976)))];
            tensor<fp32, [384]> model_encoder_layer_0_attention_output_LayerNorm_weight = const()[name = string("model_encoder_layer_0_attention_output_LayerNorm_weight"), val = tensor<fp32, [384]>(BLOBFILE(path = string("@model_path/weights/weight.bin"), offset = uint64(12656576)))];
            tensor<fp32, [1536]> model_encoder_layer_0_intermediate_dense_bias = const()[name = string("model_encoder_layer_0_intermediate_dense_bias"), val = tensor<fp32, [1536]>(BLOBFILE(path = string("@model_path/weights/weight.bin"), offset = uint64(12658176)))];
            tensor<fp32, [1536, 384]> model_encoder_layer_0_intermediate_dense_weight_quantized = constexpr_blockwise_shift_scale(data = tensor<int8, [1536, 384]>(BLOBFILE(path = string("@model_path/weights/weight.bin"), offset = uint64(12664384))), scale = tensor<fp32, [1536, 1]>(BLOBFILE(path = string("@model_path/weights/weight.bin"), offset = uint64(13254272))))[name = string("model_encoder_layer_0_intermediate_dense_weight_quantized")];
            tensor<fp32, [384]> model_encoder_layer_0_output_dense_bias = const()[name = string("model_encoder_layer_0_output_dense_bias"), val = tensor<fp32, [384]>(BLOBFILE(path = string("@model_path/weights/weight.bin"), offset = uint64(13260480)))];
            tensor<fp32, [384, 1536]> model_encoder_layer_0_output_dense_weight_quantized = constexpr_blockwise_shift_scale(data = tensor<int8, [384, 1536]>(BLOBFILE(path = string("@model_path/weights/weight.bin"), offset = uint64(13262080))), scale = tensor<fp32, [384, 1]>(BLOBFILE(path = string("@model_path/weights/weight.bin"), offset = uint64(13851968))))[name = string("model_encoder_layer_0_output_dense_weight_quantized")];
            tensor<fp32, [384]> model_encoder_layer_0_output_LayerNorm_bias = const()[name = string("model_encoder_layer_0_output_LayerNorm_bias"), val = tensor<fp32, [384]>(BLOBFILE(path = string("@model_path/weights/weight.bin"), offset = uint64(13853568)))];
            tensor<fp32, [384]> model_encoder_layer_0_output_LayerNorm_weight = const()[name = string("model_encoder_layer_0_output_LayerNorm_weight"), val = tensor<fp32, [384]>(BLOBFILE(path = string("@model_path/weights/weight.bin"), offset = uint64(13855168)))];
            tensor<fp32, [384]> model_encoder_layer_1_attention_self_query_bias = const()[name = string("model_encoder_layer_1_attention_self_query_bias"), val = tensor<fp32, [384]>(BLOBFILE(path = string("@model_path/weights/weight.bin"), offset = uint64(13856768)))];
            tensor<fp32, [384, 384]> model_encoder_layer_1_attention_self_query_weight_quantized = constexpr_blockwise_shift_scale(data = tensor<int8, [384, 384]>(BLOBFILE(path = string("@model_path/weights/weight.bin"), offset = uint64(13858368))), scale = tensor<fp32, [384, 1]>(BLOBFILE(path = string("@model_path/weights/weight.bin"), offset = uint64(14005888))))[name = string("model_encoder_layer_1_attention_self_query_weight_quantized")];
            tensor<fp32, [384]> model_encoder_layer_1_attention_self_key_bias = const()[name = string("model_encoder_layer_1_attention_self_key_bias"), val = tensor<fp32, [384]>(BLOBFILE(path = string("@model_path/weights/weight.bin"), offset = uint64(14007488)))];
            tensor<fp32, [384, 384]> model_encoder_layer_1_attention_self_key_weight_quantized = constexpr_blockwise_shift_scale(data = tensor<int8, [384, 384]>(BLOBFILE(path = string("@model_path/weights/weight.bin"), offset = uint64(14009088))), scale = tensor<fp32, [384, 1]>(BLOBFILE(path = string("@model_path/weights/weight.bin"), offset = uint64(14156608))))[name = string("model_encoder_layer_1_attention_self_key_weight_quantized")];
            tensor<fp32, [384]> model_encoder_layer_1_attention_self_value_bias = const()[name = string("model_encoder_layer_1_attention_self_value_bias"), val = tensor<fp32, [384]>(BLOBFILE(path = string("@model_path/weights/weight.bin"), offset = uint64(14158208)))];
            tensor<fp32, [384, 384]> model_encoder_layer_1_attention_self_value_weight_quantized = constexpr_blockwise_shift_scale(data = tensor<int8, [384, 384]>(BLOBFILE(path = string("@model_path/weights/weight.bin"), offset = uint64(14159808))), scale = tensor<fp32, [384, 1]>(BLOBFILE(path = string("@model_path/weights/weight.bin"), offset = uint64(14307328))))[name = string("model_encoder_layer_1_attention_self_value_weight_quantized")];
            tensor<fp32, [384]> model_encoder_layer_1_attention_output_dense_bias = const()[name = string("model_encoder_layer_1_attention_output_dense_bias"), val = tensor<fp32, [384]>(BLOBFILE(path = string("@model_path/weights/weight.bin"), offset = uint64(14308928)))];
            tensor<fp32, [384, 384]> model_encoder_layer_1_attention_output_dense_weight_quantized = constexpr_blockwise_shift_scale(data = tensor<int8, [384, 384]>(BLOBFILE(path = string("@model_path/weights/weight.bin"), offset = uint64(14310528))), scale = tensor<fp32, [384, 1]>(BLOBFILE(path = string("@model_path/weights/weight.bin"), offset = uint64(14458048))))[name = string("model_encoder_layer_1_attention_output_dense_weight_quantized")];
            tensor<fp32, [384]> model_encoder_layer_1_attention_output_LayerNorm_bias = const()[name = string("model_encoder_layer_1_attention_output_LayerNorm_bias"), val = tensor<fp32, [384]>(BLOBFILE(path = string("@model_path/weights/weight.bin"), offset = uint64(14459648)))];
            tensor<fp32, [384]> model_encoder_layer_1_attention_output_LayerNorm_weight = const()[name = string("model_encoder_layer_1_attention_output_LayerNorm_weight"), val = tensor<fp32, [384]>(BLOBFILE(path = string("@model_path/weights/weight.bin"), offset = uint64(14461248)))];
            tensor<fp32, [1536]> model_encoder_layer_1_intermediate_dense_bias = const()[name = string("model_encoder_layer_1_intermediate_dense_bias"), val = tensor<fp32, [1536]>(BLOBFILE(path = string("@model_path/weights/weight.bin"), offset = uint64(14462848)))];
            tensor<fp32, [1536, 384]> model_encoder_layer_1_intermediate_dense_weight_quantized = constexpr_blockwise_shift_scale(data = tensor<int8, [1536, 384]>(BLOBFILE(path = string("@model_path/weights/weight.bin"), offset = uint64(14469056))), scale = tensor<fp32, [1536, 1]>(BLOBFILE(path = string("@model_path/weights/weight.bin"), offset = uint64(15058944))))[name = string("model_encoder_layer_1_intermediate_dense_weight_quantized")];
            tensor<fp32, [384]> model_encoder_layer_1_output_dense_bias = const()[name = string("model_encoder_layer_1_output_dense_bias"), val = tensor<fp32, [384]>(BLOBFILE(path = string("@model_path/weights/weight.bin"), offset = uint64(15065152)))];
            tensor<fp32, [384, 1536]> model_encoder_layer_1_output_dense_weight_quantized = constexpr_blockwise_shift_scale(data = tensor<int8, [384, 1536]>(BLOBFILE(path = string("@model_path/weights/weight.bin"), offset = uint64(15066752))), scale = tensor<fp32, [384, 1]>(BLOBFILE(path = string("@model_path/weights/weight.bin"), offset = uint64(15656640))))[name = string("model_encoder_layer_1_output_dense_weight_quantized")];
            tensor<fp32, [384]> model_encoder_layer_1_output_LayerNorm_bias = const()[name = string("model_encoder_layer_1_output_LayerNorm_bias"), val = tensor<fp32, [384]>(BLOBFILE(path = string("@model_path/weights/weight.bin"), offset = uint64(15658240)))];
            tensor<fp32, [384]> model_encoder_layer_1_output_LayerNorm_weight = const()[name = string("model_encoder_layer_1_output_LayerNorm_weight"), val = tensor<fp32, [384]>(BLOBFILE(path = string("@model_path/weights/weight.bin"), offset = uint64(15659840)))];
            tensor<fp32, [384]> model_encoder_layer_2_attention_self_query_bias = const()[name = string("model_encoder_layer_2_attention_self_query_bias"), val = tensor<fp32, [384]>(BLOBFILE(path = string("@model_path/weights/weight.bin"), offset = uint64(15661440)))];
            tensor<fp32, [384, 384]> model_encoder_layer_2_attention_self_query_weight_quantized = constexpr_blockwise_shift_scale(data = tensor<int8, [384, 384]>(BLOBFILE(path = string("@model_path/weights/weight.bin"), offset = uint64(15663040))), scale = tensor<fp32, [384, 1]>(BLOBFILE(path = string("@model_path/weights/weight.bin"), offset = uint64(15810560))))[name = string("model_encoder_layer_2_attention_self_query_weight_quantized")];
            tensor<fp32, [384]> model_encoder_layer_2_attention_self_key_bias = const()[name = string("model_encoder_layer_2_attention_self_key_bias"), val = tensor<fp32, [384]>(BLOBFILE(path = string("@model_path/weights/weight.bin"), offset = uint64(15812160)))];
            tensor<fp32, [384, 384]> model_encoder_layer_2_attention_self_key_weight_quantized = constexpr_blockwise_shift_scale(data = tensor<int8, [384, 384]>(BLOBFILE(path = string("@model_path/weights/weight.bin"), offset = uint64(15813760))), scale = tensor<fp32, [384, 1]>(BLOBFILE(path = string("@model_path/weights/weight.bin"), offset = uint64(15961280))))[name = string("model_encoder_layer_2_attention_self_key_weight_quantized")];
            tensor<fp32, [384]> model_encoder_layer_2_attention_self_value_bias = const()[name = string("model_encoder_layer_2_attention_self_value_bias"), val = tensor<fp32, [384]>(BLOBFILE(path = string("@model_path/weights/weight.bin"), offset = uint64(15962880)))];
            tensor<fp32, [384, 384]> model_encoder_layer_2_attention_self_value_weight_quantized = constexpr_blockwise_shift_scale(data = tensor<int8, [384, 384]>(BLOBFILE(path = string("@model_path/weights/weight.bin"), offset = uint64(15964480))), scale = tensor<fp32, [384, 1]>(BLOBFILE(path = string("@model_path/weights/weight.bin"), offset = uint64(16112000))))[name = string("model_encoder_layer_2_attention_self_value_weight_quantized")];
            tensor<fp32, [384]> model_encoder_layer_2_attention_output_dense_bias = const()[name = string("model_encoder_layer_2_attention_output_dense_bias"), val = tensor<fp32, [384]>(BLOBFILE(path = string("@model_path/weights/weight.bin"), offset = uint64(16113600)))];
            tensor<fp32, [384, 384]> model_encoder_layer_2_attention_output_dense_weight_quantized = constexpr_blockwise_shift_scale(data = tensor<int8, [384, 384]>(BLOBFILE(path = string("@model_path/weights/weight.bin"), offset = uint64(16115200))), scale = tensor<fp32, [384, 1]>(BLOBFILE(path = string("@model_path/weights/weight.bin"), offset = uint64(16262720))))[name = string("model_encoder_layer_2_attention_output_dense_weight_quantized")];
            tensor<fp32, [384]> model_encoder_layer_2_attention_output_LayerNorm_bias = const()[name = string("model_encoder_layer_2_attention_output_LayerNorm_bias"), val = tensor<fp32, [384]>(BLOBFILE(path = string("@model_path/weights/weight.bin"), offset = uint64(16264320)))];
            tensor<fp32, [384]> model_encoder_layer_2_attention_output_LayerNorm_weight = const()[name = string("model_encoder_layer_2_attention_output_LayerNorm_weight"), val = tensor<fp32, [384]>(BLOBFILE(path = string("@model_path/weights/weight.bin"), offset = uint64(16265920)))];
            tensor<fp32, [1536]> model_encoder_layer_2_intermediate_dense_bias = const()[name = string("model_encoder_layer_2_intermediate_dense_bias"), val = tensor<fp32, [1536]>(BLOBFILE(path = string("@model_path/weights/weight.bin"), offset = uint64(16267520)))];
            tensor<fp32, [1536, 384]> model_encoder_layer_2_intermediate_dense_weight_quantized = constexpr_blockwise_shift_scale(data = tensor<int8, [1536, 384]>(BLOBFILE(path = string("@model_path/weights/weight.bin"), offset = uint64(16273728))), scale = tensor<fp32, [1536, 1]>(BLOBFILE(path = string("@model_path/weights/weight.bin"), offset = uint64(16863616))))[name = string("model_encoder_layer_2_intermediate_dense_weight_quantized")];
            tensor<fp32, [384]> model_encoder_layer_2_output_dense_bias = const()[name = string("model_encoder_layer_2_output_dense_bias"), val = tensor<fp32, [384]>(BLOBFILE(path = string("@model_path/weights/weight.bin"), offset = uint64(16869824)))];
            tensor<fp32, [384, 1536]> model_encoder_layer_2_output_dense_weight_quantized = constexpr_blockwise_shift_scale(data = tensor<int8, [384, 1536]>(BLOBFILE(path = string("@model_path/weights/weight.bin"), offset = uint64(16871424))), scale = tensor<fp32, [384, 1]>(BLOBFILE(path = string("@model_path/weights/weight.bin"), offset = uint64(17461312))))[name = string("model_encoder_layer_2_output_dense_weight_quantized")];
            tensor<fp32, [384]> model_encoder_layer_2_output_LayerNorm_bias = const()[name = string("model_encoder_layer_2_output_LayerNorm_bias"), val = tensor<fp32, [384]>(BLOBFILE(path = string("@model_path/weights/weight.bin"), offset = uint64(17462912)))];
            tensor<fp32, [384]> model_encoder_layer_2_output_LayerNorm_weight = const()[name = string("model_encoder_layer_2_output_LayerNorm_weight"), val = tensor<fp32, [384]>(BLOBFILE(path = string("@model_path/weights/weight.bin"), offset = uint64(17464512)))];
            tensor<fp32, [384]> model_encoder_layer_3_attention_self_query_bias = const()[name = string("model_encoder_layer_3_attention_self_query_bias"), val = tensor<fp32, [384]>(BLOBFILE(path = string("@model_path/weights/weight.bin"), offset = uint64(17466112)))];
            tensor<fp32, [384, 384]> model_encoder_layer_3_attention_self_query_weight_quantized = constexpr_blockwise_shift_scale(data = tensor<int8, [384, 384]>(BLOBFILE(path = string("@model_path/weights/weight.bin"), offset = uint64(17467712))), scale = tensor<fp32, [384, 1]>(BLOBFILE(path = string("@model_path/weights/weight.bin"), offset = uint64(17615232))))[name = string("model_encoder_layer_3_attention_self_query_weight_quantized")];
            tensor<fp32, [384]> model_encoder_layer_3_attention_self_key_bias = const()[name = string("model_encoder_layer_3_attention_self_key_bias"), val = tensor<fp32, [384]>(BLOBFILE(path = string("@model_path/weights/weight.bin"), offset = uint64(17616832)))];
            tensor<fp32, [384, 384]> model_encoder_layer_3_attention_self_key_weight_quantized = constexpr_blockwise_shift_scale(data = tensor<int8, [384, 384]>(BLOBFILE(path = string("@model_path/weights/weight.bin"), offset = uint64(17618432))), scale = tensor<fp32, [384, 1]>(BLOBFILE(path = string("@model_path/weights/weight.bin"), offset = uint64(17765952))))[name = string("model_encoder_layer_3_attention_self_key_weight_quantized")];
            tensor<fp32, [384]> model_encoder_layer_3_attention_self_value_bias = const()[name = string("model_encoder_layer_3_attention_self_value_bias"), val = tensor<fp32, [384]>(BLOBFILE(path = string("@model_path/weights/weight.bin"), offset = uint64(17767552)))];
            tensor<fp32, [384, 384]> model_encoder_layer_3_attention_self_value_weight_quantized = constexpr_blockwise_shift_scale(data = tensor<int8, [384, 384]>(BLOBFILE(path = string("@model_path/weights/weight.bin"), offset = uint64(17769152))), scale = tensor<fp32, [384, 1]>(BLOBFILE(path = string("@model_path/weights/weight.bin"), offset = uint64(17916672))))[name = string("model_encoder_layer_3_attention_self_value_weight_quantized")];
            tensor<fp32, [384]> model_encoder_layer_3_attention_output_dense_bias = const()[name = string("model_encoder_layer_3_attention_output_dense_bias"), val = tensor<fp32, [384]>(BLOBFILE(path = string("@model_path/weights/weight.bin"), offset = uint64(17918272)))];
            tensor<fp32, [384, 384]> model_encoder_layer_3_attention_output_dense_weight_quantized = constexpr_blockwise_shift_scale(data = tensor<int8, [384, 384]>(BLOBFILE(path = string("@model_path/weights/weight.bin"), offset = uint64(17919872))), scale = tensor<fp32, [384, 1]>(BLOBFILE(path = string("@model_path/weights/weight.bin"), offset = uint64(18067392))))[name = string("model_encoder_layer_3_attention_output_dense_weight_quantized")];
            tensor<fp32, [384]> model_encoder_layer_3_attention_output_LayerNorm_bias = const()[name = string("model_encoder_layer_3_attention_output_LayerNorm_bias"), val = tensor<fp32, [384]>(BLOBFILE(path = string("@model_path/weights/weight.bin"), offset = uint64(18068992)))];
            tensor<fp32, [384]> model_encoder_layer_3_attention_output_LayerNorm_weight = const()[name = string("model_encoder_layer_3_attention_output_LayerNorm_weight"), val = tensor<fp32, [384]>(BLOBFILE(path = string("@model_path/weights/weight.bin"), offset = uint64(18070592)))];
            tensor<fp32, [1536]> model_encoder_layer_3_intermediate_dense_bias = const()[name = string("model_encoder_layer_3_intermediate_dense_bias"), val = tensor<fp32, [1536]>(BLOBFILE(path = string("@model_path/weights/weight.bin"), offset = uint64(18072192)))];
            tensor<fp32, [1536, 384]> model_encoder_layer_3_intermediate_dense_weight_quantized = constexpr_blockwise_shift_scale(data = tensor<int8, [1536, 384]>(BLOBFILE(path = string("@model_path/weights/weight.bin"), offset = uint64(18078400))), scale = tensor<fp32, [1536, 1]>(BLOBFILE(path = string("@model_path/weights/weight.bin"), offset = uint64(18668288))))[name = string("model_encoder_layer_3_intermediate_dense_weight_quantized")];
            tensor<fp32, [384]> model_encoder_layer_3_output_dense_bias = const()[name = string("model_encoder_layer_3_output_dense_bias"), val = tensor<fp32, [384]>(BLOBFILE(path = string("@model_path/weights/weight.bin"), offset = uint64(18674496)))];
            tensor<fp32, [384, 1536]> model_encoder_layer_3_output_dense_weight_quantized = constexpr_blockwise_shift_scale(data = tensor<int8, [384, 1536]>(BLOBFILE(path = string("@model_path/weights/weight.bin"), offset = uint64(18676096))), scale = tensor<fp32, [384, 1]>(BLOBFILE(path = string("@model_path/weights/weight.bin"), offset = uint64(19265984))))[name = string("model_encoder_layer_3_output_dense_weight_quantized")];
            tensor<fp32, [384]> model_encoder_layer_3_output_LayerNorm_bias = const()[name = string("model_encoder_layer_3_output_LayerNorm_bias"), val = tensor<fp32, [384]>(BLOBFILE(path = string("@model_path/weights/weight.bin"), offset = uint64(19267584)))];
            tensor<fp32, [384]> model_encoder_layer_3_output_LayerNorm_weight = const()[name = string("model_encoder_layer_3_output_LayerNorm_weight"), val = tensor<fp32, [384]>(BLOBFILE(path = string("@model_path/weights/weight.bin"), offset = uint64(19269184)))];
            tensor<fp32, [384]> model_encoder_layer_4_attention_self_query_bias = const()[name = string("model_encoder_layer_4_attention_self_query_bias"), val = tensor<fp32, [384]>(BLOBFILE(path = string("@model_path/weights/weight.bin"), offset = uint64(19270784)))];
            tensor<fp32, [384, 384]> model_encoder_layer_4_attention_self_query_weight_quantized = constexpr_blockwise_shift_scale(data = tensor<int8, [384, 384]>(BLOBFILE(path = string("@model_path/weights/weight.bin"), offset = uint64(19272384))), scale = tensor<fp32, [384, 1]>(BLOBFILE(path = string("@model_path/weights/weight.bin"), offset = uint64(19419904))))[name = string("model_encoder_layer_4_attention_self_query_weight_quantized")];
            tensor<fp32, [384]> model_encoder_layer_4_attention_self_key_bias = const()[name = string("model_encoder_layer_4_attention_self_key_bias"), val = tensor<fp32, [384]>(BLOBFILE(path = string("@model_path/weights/weight.bin"), offset = uint64(19421504)))];
            tensor<fp32, [384, 384]> model_encoder_layer_4_attention_self_key_weight_quantized = constexpr_blockwise_shift_scale(data = tensor<int8, [384, 384]>(BLOBFILE(path = string("@model_path/weights/weight.bin"), offset = uint64(19423104))), scale = tensor<fp32, [384, 1]>(BLOBFILE(path = string("@model_path/weights/weight.bin"), offset = uint64(19570624))))[name = string("model_encoder_layer_4_attention_self_key_weight_quantized")];
            tensor<fp32, [384]> model_encoder_layer_4_attention_self_value_bias = const()[name = string("model_encoder_layer_4_attention_self_value_bias"), val = tensor<fp32, [384]>(BLOBFILE(path = string("@model_path/weights/weight.bin"), offset = uint64(19572224)))];
            tensor<fp32, [384, 384]> model_encoder_layer_4_attention_self_value_weight_quantized = constexpr_blockwise_shift_scale(data = tensor<int8, [384, 384]>(BLOBFILE(path = string("@model_path/weights/weight.bin"), offset = uint64(19573824))), scale = tensor<fp32, [384, 1]>(BLOBFILE(path = string("@model_path/weights/weight.bin"), offset = uint64(19721344))))[name = string("model_encoder_layer_4_attention_self_value_weight_quantized")];
            tensor<fp32, [384]> model_encoder_layer_4_attention_output_dense_bias = const()[name = string("model_encoder_layer_4_attention_output_dense_bias"), val = tensor<fp32, [384]>(BLOBFILE(path = string("@model_path/weights/weight.bin"), offset = uint64(19722944)))];
            tensor<fp32, [384, 384]> model_encoder_layer_4_attention_output_dense_weight_quantized = constexpr_blockwise_shift_scale(data = tensor<int8, [384, 384]>(BLOBFILE(path = string("@model_path/weights/weight.bin"), offset = uint64(19724544))), scale = tensor<fp32, [384, 1]>(BLOBFILE(path = string("@model_path/weights/weight.bin"), offset = uint64(19872064))))[name = string("model_encoder_layer_4_attention_output_dense_weight_quantized")];
            tensor<fp32, [384]> model_encoder_layer_4_attention_output_LayerNorm_bias = const()[name = string("model_encoder_layer_4_attention_output_LayerNorm_bias"), val = tensor<fp32, [384]>(BLOBFILE(path = string("@model_path/weights/weight.bin"), offset = uint64(19873664)))];
            tensor<fp32, [384]> model_encoder_layer_4_attention_output_LayerNorm_weight = const()[name = string("model_encoder_layer_4_attention_output_LayerNorm_weight"), val = tensor<fp32, [384]>(BLOBFILE(path = string("@model_path/weights/weight.bin"), offset = uint64(19875264)))];
            tensor<fp32, [1536]> model_encoder_layer_4_intermediate_dense_bias = const()[name = string("model_encoder_layer_4_intermediate_dense_bias"), val = tensor<fp32, [1536]>(BLOBFILE(path = string("@model_path/weights/weight.bin"), offset = uint64(19876864)))];
            tensor<fp32, [1536, 384]> model_encoder_layer_4_intermediate_dense_weight_quantized = constexpr_blockwise_shift_scale(data = tensor<int8, [1536, 384]>(BLOBFILE(path = string("@model_path/weights/weight.bin"), offset = uint64(19883072))), scale = tensor<fp32, [1536, 1]>(BLOBFILE(path = string("@model_path/weights/weight.bin"), offset = uint64(20472960))))[name = string("model_encoder_layer_4_intermediate_dense_weight_quantized")];
            tensor<fp32, [384]> model_encoder_layer_4_output_dense_bias = const()[name = string("model_encoder_layer_4_output_dense_bias"), val = tensor<fp32, [384]>(BLOBFILE(path = string("@model_path/weights/weight.bin"), offset = uint64(20479168)))];
            tensor<fp32, [384, 1536]> model_encoder_layer_4_output_dense_weight_quantized = constexpr_blockwise_shift_scale(data = tensor<int8, [384, 1536]>(BLOBFILE(path = string("@model_path/weights/weight.bin"), offset = uint64(20480768))), scale = tensor<fp32, [384, 1]>(BLOBFILE(path = string("@model_path/weights/weight.bin"), offset = uint64(21070656))))[name = string("model_encoder_layer_4_output_dense_weight_quantized")];
            tensor<fp32, [384]> model_encoder_layer_4_output_LayerNorm_bias = const()[name = string("model_encoder_layer_4_output_LayerNorm_bias"), val = tensor<fp32, [384]>(BLOBFILE(path = string("@model_path/weights/weight.bin"), offset = uint64(21072256)))];
            tensor<fp32, [384]> model_encoder_layer_4_output_LayerNorm_weight = const()[name = string("model_encoder_layer_4_output_LayerNorm_weight"), val = tensor<fp32, [384]>(BLOBFILE(path = string("@model_path/weights/weight.bin"), offset = uint64(21073856)))];
            tensor<fp32, [384]> model_encoder_layer_5_attention_self_query_bias = const()[name = string("model_encoder_layer_5_attention_self_query_bias"), val = tensor<fp32, [384]>(BLOBFILE(path = string("@model_path/weights/weight.bin"), offset = uint64(21075456)))];
            tensor<fp32, [384, 384]> model_encoder_layer_5_attention_self_query_weight_quantized = constexpr_blockwise_shift_scale(data = tensor<int8, [384, 384]>(BLOBFILE(path = string("@model_path/weights/weight.bin"), offset = uint64(21077056))), scale = tensor<fp32, [384, 1]>(BLOBFILE(path = string("@model_path/weights/weight.bin"), offset = uint64(21224576))))[name = string("model_encoder_layer_5_attention_self_query_weight_quantized")];
            tensor<fp32, [384]> model_encoder_layer_5_attention_self_key_bias = const()[name = string("model_encoder_layer_5_attention_self_key_bias"), val = tensor<fp32, [384]>(BLOBFILE(path = string("@model_path/weights/weight.bin"), offset = uint64(21226176)))];
            tensor<fp32, [384, 384]> model_encoder_layer_5_attention_self_key_weight_quantized = constexpr_blockwise_shift_scale(data = tensor<int8, [384, 384]>(BLOBFILE(path = string("@model_path/weights/weight.bin"), offset = uint64(21227776))), scale = tensor<fp32, [384, 1]>(BLOBFILE(path = string("@model_path/weights/weight.bin"), offset = uint64(21375296))))[name = string("model_encoder_layer_5_attention_self_key_weight_quantized")];
            tensor<fp32, [384]> model_encoder_layer_5_attention_self_value_bias = const()[name = string("model_encoder_layer_5_attention_self_value_bias"), val = tensor<fp32, [384]>(BLOBFILE(path = string("@model_path/weights/weight.bin"), offset = uint64(21376896)))];
            tensor<fp32, [384, 384]> model_encoder_layer_5_attention_self_value_weight_quantized = constexpr_blockwise_shift_scale(data = tensor<int8, [384, 384]>(BLOBFILE(path = string("@model_path/weights/weight.bin"), offset = uint64(21378496))), scale = tensor<fp32, [384, 1]>(BLOBFILE(path = string("@model_path/weights/weight.bin"), offset = uint64(21526016))))[name = string("model_encoder_layer_5_attention_self_value_weight_quantized")];
            tensor<fp32, [384]> model_encoder_layer_5_attention_output_dense_bias = const()[name = string("model_encoder_layer_5_attention_output_dense_bias"), val = tensor<fp32, [384]>(BLOBFILE(path = string("@model_path/weights/weight.bin"), offset = uint64(21527616)))];
            tensor<fp32, [384, 384]> model_encoder_layer_5_attention_output_dense_weight_quantized = constexpr_blockwise_shift_scale(data = tensor<int8, [384, 384]>(BLOBFILE(path = string("@model_path/weights/weight.bin"), offset = uint64(21529216))), scale = tensor<fp32, [384, 1]>(BLOBFILE(path = string("@model_path/weights/weight.bin"), offset = uint64(21676736))))[name = string("model_encoder_layer_5_attention_output_dense_weight_quantized")];
            tensor<fp32, [384]> model_encoder_layer_5_attention_output_LayerNorm_bias = const()[name = string("model_encoder_layer_5_attention_output_LayerNorm_bias"), val = tensor<fp32, [384]>(BLOBFILE(path = string("@model_path/weights/weight.bin"), offset = uint64(21678336)))];
            tensor<fp32, [384]> model_encoder_layer_5_attention_output_LayerNorm_weight = const()[name = string("model_encoder_layer_5_attention_output_LayerNorm_weight"), val = tensor<fp32, [384]>(BLOBFILE(path = string("@model_path/weights/weight.bin"), offset = uint64(21679936)))];
            tensor<fp32, [1536]> model_encoder_layer_5_intermediate_dense_bias = const()[name = string("model_encoder_layer_5_intermediate_dense_bias"), val = tensor<fp32, [1536]>(BLOBFILE(path = string("@model_path/weights/weight.bin"), offset = uint64(21681536)))];
            tensor<fp32, [1536, 384]> model_encoder_layer_5_intermediate_dense_weight_quantized = constexpr_blockwise_shift_scale(data = tensor<int8, [1536, 384]>(BLOBFILE(path = string("@model_path/weights/weight.bin"), offset = uint64(21687744))), scale = tensor<fp32, [1536, 1]>(BLOBFILE(path = string("@model_path/weights/weight.bin"), offset = uint64(22277632))))[name = string("model_encoder_layer_5_intermediate_dense_weight_quantized")];
            tensor<fp32, [384]> model_encoder_layer_5_output_dense_bias = const()[name = string("model_encoder_layer_5_output_dense_bias"), val = tensor<fp32, [384]>(BLOBFILE(path = string("@model_path/weights/weight.bin"), offset = uint64(22283840)))];
            tensor<fp32, [384, 1536]> model_encoder_layer_5_output_dense_weight_quantized = constexpr_blockwise_shift_scale(data = tensor<int8, [384, 1536]>(BLOBFILE(path = string("@model_path/weights/weight.bin"), offset = uint64(22285440))), scale = tensor<fp32, [384, 1]>(BLOBFILE(path = string("@model_path/weights/weight.bin"), offset = uint64(22875328))))[name = string("model_encoder_layer_5_output_dense_weight_quantized")];
            tensor<fp32, [384]> model_encoder_layer_5_output_LayerNorm_bias = const()[name = string("model_encoder_layer_5_output_LayerNorm_bias"), val = tensor<fp32, [384]>(BLOBFILE(path = string("@model_path/weights/weight.bin"), offset = uint64(22876928)))];
            tensor<fp32, [384]> model_encoder_layer_5_output_LayerNorm_weight = const()[name = string("model_encoder_layer_5_output_LayerNorm_weight"), val = tensor<fp32, [384]>(BLOBFILE(path = string("@model_path/weights/weight.bin"), offset = uint64(22878528)))];
            tensor<fp32, [384]> model_encoder_layer_6_attention_self_query_bias = const()[name = string("model_encoder_layer_6_attention_self_query_bias"), val = tensor<fp32, [384]>(BLOBFILE(path = string("@model_path/weights/weight.bin"), offset = uint64(22880128)))];
            tensor<fp32, [384, 384]> model_encoder_layer_6_attention_self_query_weight_quantized = constexpr_blockwise_shift_scale(data = tensor<int8, [384, 384]>(BLOBFILE(path = string("@model_path/weights/weight.bin"), offset = uint64(22881728))), scale = tensor<fp32, [384, 1]>(BLOBFILE(path = string("@model_path/weights/weight.bin"), offset = uint64(23029248))))[name = string("model_encoder_layer_6_attention_self_query_weight_quantized")];
            tensor<fp32, [384]> model_encoder_layer_6_attention_self_key_bias = const()[name = string("model_encoder_layer_6_attention_self_key_bias"), val = tensor<fp32, [384]>(BLOBFILE(path = string("@model_path/weights/weight.bin"), offset = uint64(23030848)))];
            tensor<fp32, [384, 384]> model_encoder_layer_6_attention_self_key_weight_quantized = constexpr_blockwise_shift_scale(data = tensor<int8, [384, 384]>(BLOBFILE(path = string("@model_path/weights/weight.bin"), offset = uint64(23032448))), scale = tensor<fp32, [384, 1]>(BLOBFILE(path = string("@model_path/weights/weight.bin"), offset = uint64(23179968))))[name = string("model_encoder_layer_6_attention_self_key_weight_quantized")];
            tensor<fp32, [384]> model_encoder_layer_6_attention_self_value_bias = const()[name = string("model_encoder_layer_6_attention_self_value_bias"), val = tensor<fp32, [384]>(BLOBFILE(path = string("@model_path/weights/weight.bin"), offset = uint64(23181568)))];
            tensor<fp32, [384, 384]> model_encoder_layer_6_attention_self_value_weight_quantized = constexpr_blockwise_shift_scale(data = tensor<int8, [384, 384]>(BLOBFILE(path = string("@model_path/weights/weight.bin"), offset = uint64(23183168))), scale = tensor<fp32, [384, 1]>(BLOBFILE(path = string("@model_path/weights/weight.bin"), offset = uint64(23330688))))[name = string("model_encoder_layer_6_attention_self_value_weight_quantized")];
            tensor<fp32, [384]> model_encoder_layer_6_attention_output_dense_bias = const()[name = string("model_encoder_layer_6_attention_output_dense_bias"), val = tensor<fp32, [384]>(BLOBFILE(path = string("@model_path/weights/weight.bin"), offset = uint64(23332288)))];
            tensor<fp32, [384, 384]> model_encoder_layer_6_attention_output_dense_weight_quantized = constexpr_blockwise_shift_scale(data = tensor<int8, [384, 384]>(BLOBFILE(path = string("@model_path/weights/weight.bin"), offset = uint64(23333888))), scale = tensor<fp32, [384, 1]>(BLOBFILE(path = string("@model_path/weights/weight.bin"), offset = uint64(23481408))))[name = string("model_encoder_layer_6_attention_output_dense_weight_quantized")];
            tensor<fp32, [384]> model_encoder_layer_6_attention_output_LayerNorm_bias = const()[name = string("model_encoder_layer_6_attention_output_LayerNorm_bias"), val = tensor<fp32, [384]>(BLOBFILE(path = string("@model_path/weights/weight.bin"), offset = uint64(23483008)))];
            tensor<fp32, [384]> model_encoder_layer_6_attention_output_LayerNorm_weight = const()[name = string("model_encoder_layer_6_attention_output_LayerNorm_weight"), val = tensor<fp32, [384]>(BLOBFILE(path = string("@model_path/weights/weight.bin"), offset = uint64(23484608)))];
            tensor<fp32, [1536]> model_encoder_layer_6_intermediate_dense_bias = const()[name = string("model_encoder_layer_6_intermediate_dense_bias"), val = tensor<fp32, [1536]>(BLOBFILE(path = string("@model_path/weights/weight.bin"), offset = uint64(23486208)))];
            tensor<fp32, [1536, 384]> model_encoder_layer_6_intermediate_dense_weight_quantized = constexpr_blockwise_shift_scale(data = tensor<int8, [1536, 384]>(BLOBFILE(path = string("@model_path/weights/weight.bin"), offset = uint64(23492416))), scale = tensor<fp32, [1536, 1]>(BLOBFILE(path = string("@model_path/weights/weight.bin"), offset = uint64(24082304))))[name = string("model_encoder_layer_6_intermediate_dense_weight_quantized")];
            tensor<fp32, [384]> model_encoder_layer_6_output_dense_bias = const()[name = string("model_encoder_layer_6_output_dense_bias"), val = tensor<fp32, [384]>(BLOBFILE(path = string("@model_path/weights/weight.bin"), offset = uint64(24088512)))];
            tensor<fp32, [384, 1536]> model_encoder_layer_6_output_dense_weight_quantized = constexpr_blockwise_shift_scale(data = tensor<int8, [384, 1536]>(BLOBFILE(path = string("@model_path/weights/weight.bin"), offset = uint64(24090112))), scale = tensor<fp32, [384, 1]>(BLOBFILE(path = string("@model_path/weights/weight.bin"), offset = uint64(24680000))))[name = string("model_encoder_layer_6_output_dense_weight_quantized")];
            tensor<fp32, [384]> model_encoder_layer_6_output_LayerNorm_bias = const()[name = string("model_encoder_layer_6_output_LayerNorm_bias"), val = tensor<fp32, [384]>(BLOBFILE(path = string("@model_path/weights/weight.bin"), offset = uint64(24681600)))];
            tensor<fp32, [384]> model_encoder_layer_6_output_LayerNorm_weight = const()[name = string("model_encoder_layer_6_output_LayerNorm_weight"), val = tensor<fp32, [384]>(BLOBFILE(path = string("@model_path/weights/weight.bin"), offset = uint64(24683200)))];
            tensor<fp32, [384]> model_encoder_layer_7_attention_self_query_bias = const()[name = string("model_encoder_layer_7_attention_self_query_bias"), val = tensor<fp32, [384]>(BLOBFILE(path = string("@model_path/weights/weight.bin"), offset = uint64(24684800)))];
            tensor<fp32, [384, 384]> model_encoder_layer_7_attention_self_query_weight_quantized = constexpr_blockwise_shift_scale(data = tensor<int8, [384, 384]>(BLOBFILE(path = string("@model_path/weights/weight.bin"), offset = uint64(24686400))), scale = tensor<fp32, [384, 1]>(BLOBFILE(path = string("@model_path/weights/weight.bin"), offset = uint64(24833920))))[name = string("model_encoder_layer_7_attention_self_query_weight_quantized")];
            tensor<fp32, [384]> model_encoder_layer_7_attention_self_key_bias = const()[name = string("model_encoder_layer_7_attention_self_key_bias"), val = tensor<fp32, [384]>(BLOBFILE(path = string("@model_path/weights/weight.bin"), offset = uint64(24835520)))];
            tensor<fp32, [384, 384]> model_encoder_layer_7_attention_self_key_weight_quantized = constexpr_blockwise_shift_scale(data = tensor<int8, [384, 384]>(BLOBFILE(path = string("@model_path/weights/weight.bin"), offset = uint64(24837120))), scale = tensor<fp32, [384, 1]>(BLOBFILE(path = string("@model_path/weights/weight.bin"), offset = uint64(24984640))))[name = string("model_encoder_layer_7_attention_self_key_weight_quantized")];
            tensor<fp32, [384]> model_encoder_layer_7_attention_self_value_bias = const()[name = string("model_encoder_layer_7_attention_self_value_bias"), val = tensor<fp32, [384]>(BLOBFILE(path = string("@model_path/weights/weight.bin"), offset = uint64(24986240)))];
            tensor<fp32, [384, 384]> model_encoder_layer_7_attention_self_value_weight_quantized = constexpr_blockwise_shift_scale(data = tensor<int8, [384, 384]>(BLOBFILE(path = string("@model_path/weights/weight.bin"), offset = uint64(24987840))), scale = tensor<fp32, [384, 1]>(BLOBFILE(path = string("@model_path/weights/weight.bin"), offset = uint64(25135360))))[name = string("model_encoder_layer_7_attention_self_value_weight_quantized")];
            tensor<fp32, [384]> model_encoder_layer_7_attention_output_dense_bias = const()[name = string("model_encoder_layer_7_attention_output_dense_bias"), val = tensor<fp32, [384]>(BLOBFILE(path = string("@model_path/weights/weight.bin"), offset = uint64(25136960)))];
            tensor<fp32, [384, 384]> model_encoder_layer_7_attention_output_dense_weight_quantized = constexpr_blockwise_shift_scale(data = tensor<int8, [384, 384]>(BLOBFILE(path = string("@model_path/weights/weight.bin"), offset = uint64(25138560))), scale = tensor<fp32, [384, 1]>(BLOBFILE(path = string("@model_path/weights/weight.bin"), offset = uint64(25286080))))[name = string("model_encoder_layer_7_attention_output_dense_weight_quantized")];
            tensor<fp32, [384]> model_encoder_layer_7_attention_output_LayerNorm_bias = const()[name = string("model_encoder_layer_7_attention_output_LayerNorm_bias"), val = tensor<fp32, [384]>(BLOBFILE(path = string("@model_path/weights/weight.bin"), offset = uint64(25287680)))];
            tensor<fp32, [384]> model_encoder_layer_7_attention_output_LayerNorm_weight = const()[name = string("model_encoder_layer_7_attention_output_LayerNorm_weight"), val = tensor<fp32, [384]>(BLOBFILE(path = string("@model_path/weights/weight.bin"), offset = uint64(25289280)))];
            tensor<fp32, [1536]> model_encoder_layer_7_intermediate_dense_bias = const()[name = string("model_encoder_layer_7_intermediate_dense_bias"), val = tensor<fp32, [1536]>(BLOBFILE(path = string("@model_path/weights/weight.bin"), offset = uint64(25290880)))];
            tensor<fp32, [1536, 384]> model_encoder_layer_7_intermediate_dense_weight_quantized = constexpr_blockwise_shift_scale(data = tensor<int8, [1536, 384]>(BLOBFILE(path = string("@model_path/weights/weight.bin"), offset = uint64(25297088))), scale = tensor<fp32, [1536, 1]>(BLOBFILE(path = string("@model_path/weights/weight.bin"), offset = uint64(25886976))))[name = string("model_encoder_layer_7_intermediate_dense_weight_quantized")];
            tensor<fp32, [384]> model_encoder_layer_7_output_dense_bias = const()[name = string("model_encoder_layer_7_output_dense_bias"), val = tensor<fp32, [384]>(BLOBFILE(path = string("@model_path/weights/weight.bin"), offset = uint64(25893184)))];
            tensor<fp32, [384, 1536]> model_encoder_layer_7_output_dense_weight_quantized = constexpr_blockwise_shift_scale(data = tensor<int8, [384, 1536]>(BLOBFILE(path = string("@model_path/weights/weight.bin"), offset = uint64(25894784))), scale = tensor<fp32, [384, 1]>(BLOBFILE(path = string("@model_path/weights/weight.bin"), offset = uint64(26484672))))[name = string("model_encoder_layer_7_output_dense_weight_quantized")];
            tensor<fp32, [384]> model_encoder_layer_7_output_LayerNorm_bias = const()[name = string("model_encoder_layer_7_output_LayerNorm_bias"), val = tensor<fp32, [384]>(BLOBFILE(path = string("@model_path/weights/weight.bin"), offset = uint64(26486272)))];
            tensor<fp32, [384]> model_encoder_layer_7_output_LayerNorm_weight = const()[name = string("model_encoder_layer_7_output_LayerNorm_weight"), val = tensor<fp32, [384]>(BLOBFILE(path = string("@model_path/weights/weight.bin"), offset = uint64(26487872)))];
            tensor<fp32, [384]> model_encoder_layer_8_attention_self_query_bias = const()[name = string("model_encoder_layer_8_attention_self_query_bias"), val = tensor<fp32, [384]>(BLOBFILE(path = string("@model_path/weights/weight.bin"), offset = uint64(26489472)))];
            tensor<fp32, [384, 384]> model_encoder_layer_8_attention_self_query_weight_quantized = constexpr_blockwise_shift_scale(data = tensor<int8, [384, 384]>(BLOBFILE(path = string("@model_path/weights/weight.bin"), offset = uint64(26491072))), scale = tensor<fp32, [384, 1]>(BLOBFILE(path = string("@model_path/weights/weight.bin"), offset = uint64(26638592))))[name = string("model_encoder_layer_8_attention_self_query_weight_quantized")];
            tensor<fp32, [384]> model_encoder_layer_8_attention_self_key_bias = const()[name = string("model_encoder_layer_8_attention_self_key_bias"), val = tensor<fp32, [384]>(BLOBFILE(path = string("@model_path/weights/weight.bin"), offset = uint64(26640192)))];
            tensor<fp32, [384, 384]> model_encoder_layer_8_attention_self_key_weight_quantized = constexpr_blockwise_shift_scale(data = tensor<int8, [384, 384]>(BLOBFILE(path = string("@model_path/weights/weight.bin"), offset = uint64(26641792))), scale = tensor<fp32, [384, 1]>(BLOBFILE(path = string("@model_path/weights/weight.bin"), offset = uint64(26789312))))[name = string("model_encoder_layer_8_attention_self_key_weight_quantized")];
            tensor<fp32, [384]> model_encoder_layer_8_attention_self_value_bias = const()[name = string("model_encoder_layer_8_attention_self_value_bias"), val = tensor<fp32, [384]>(BLOBFILE(path = string("@model_path/weights/weight.bin"), offset = uint64(26790912)))];
            tensor<fp32, [384, 384]> model_encoder_layer_8_attention_self_value_weight_quantized = constexpr_blockwise_shift_scale(data = tensor<int8, [384, 384]>(BLOBFILE(path = string("@model_path/weights/weight.bin"), offset = uint64(26792512))), scale = tensor<fp32, [384, 1]>(BLOBFILE(path = string("@model_path/weights/weight.bin"), offset = uint64(26940032))))[name = string("model_encoder_layer_8_attention_self_value_weight_quantized")];
            tensor<fp32, [384]> model_encoder_layer_8_attention_output_dense_bias = const()[name = string("model_encoder_layer_8_attention_output_dense_bias"), val = tensor<fp32, [384]>(BLOBFILE(path = string("@model_path/weights/weight.bin"), offset = uint64(26941632)))];
            tensor<fp32, [384, 384]> model_encoder_layer_8_attention_output_dense_weight_quantized = constexpr_blockwise_shift_scale(data = tensor<int8, [384, 384]>(BLOBFILE(path = string("@model_path/weights/weight.bin"), offset = uint64(26943232))), scale = tensor<fp32, [384, 1]>(BLOBFILE(path = string("@model_path/weights/weight.bin"), offset = uint64(27090752))))[name = string("model_encoder_layer_8_attention_output_dense_weight_quantized")];
            tensor<fp32, [384]> model_encoder_layer_8_attention_output_LayerNorm_bias = const()[name = string("model_encoder_layer_8_attention_output_LayerNorm_bias"), val = tensor<fp32, [384]>(BLOBFILE(path = string("@model_path/weights/weight.bin"), offset = uint64(27092352)))];
            tensor<fp32, [384]> model_encoder_layer_8_attention_output_LayerNorm_weight = const()[name = string("model_encoder_layer_8_attention_output_LayerNorm_weight"), val = tensor<fp32, [384]>(BLOBFILE(path = string("@model_path/weights/weight.bin"), offset = uint64(27093952)))];
            tensor<fp32, [1536]> model_encoder_layer_8_intermediate_dense_bias = const()[name = string("model_encoder_layer_8_intermediate_dense_bias"), val = tensor<fp32, [1536]>(BLOBFILE(path = string("@model_path/weights/weight.bin"), offset = uint64(27095552)))];
            tensor<fp32, [1536, 384]> model_encoder_layer_8_intermediate_dense_weight_quantized = constexpr_blockwise_shift_scale(data = tensor<int8, [1536, 384]>(BLOBFILE(path = string("@model_path/weights/weight.bin"), offset = uint64(27101760))), scale = tensor<fp32, [1536, 1]>(BLOBFILE(path = string("@model_path/weights/weight.bin"), offset = uint64(27691648))))[name = string("model_encoder_layer_8_intermediate_dense_weight_quantized")];
            tensor<fp32, [384]> model_encoder_layer_8_output_dense_bias = const()[name = string("model_encoder_layer_8_output_dense_bias"), val = tensor<fp32, [384]>(BLOBFILE(path = string("@model_path/weights/weight.bin"), offset = uint64(27697856)))];
            tensor<fp32, [384, 1536]> model_encoder_layer_8_output_dense_weight_quantized = constexpr_blockwise_shift_scale(data = tensor<int8, [384, 1536]>(BLOBFILE(path = string("@model_path/weights/weight.bin"), offset = uint64(27699456))), scale = tensor<fp32, [384, 1]>(BLOBFILE(path = string("@model_path/weights/weight.bin"), offset = uint64(28289344))))[name = string("model_encoder_layer_8_output_dense_weight_quantized")];
            tensor<fp32, [384]> model_encoder_layer_8_output_LayerNorm_bias = const()[name = string("model_encoder_layer_8_output_LayerNorm_bias"), val = tensor<fp32, [384]>(BLOBFILE(path = string("@model_path/weights/weight.bin"), offset = uint64(28290944)))];
            tensor<fp32, [384]> model_encoder_layer_8_output_LayerNorm_weight = const()[name = string("model_encoder_layer_8_output_LayerNorm_weight"), val = tensor<fp32, [384]>(BLOBFILE(path = string("@model_path/weights/weight.bin"), offset = uint64(28292544)))];
            tensor<fp32, [384]> model_encoder_layer_9_attention_self_query_bias = const()[name = string("model_encoder_layer_9_attention_self_query_bias"), val = tensor<fp32, [384]>(BLOBFILE(path = string("@model_path/weights/weight.bin"), offset = uint64(28294144)))];
            tensor<fp32, [384, 384]> model_encoder_layer_9_attention_self_query_weight_quantized = constexpr_blockwise_shift_scale(data = tensor<int8, [384, 384]>(BLOBFILE(path = string("@model_path/weights/weight.bin"), offset = uint64(28295744))), scale = tensor<fp32, [384, 1]>(BLOBFILE(path = string("@model_path/weights/weight.bin"), offset = uint64(28443264))))[name = string("model_encoder_layer_9_attention_self_query_weight_quantized")];
            tensor<fp32, [384]> model_encoder_layer_9_attention_self_key_bias = const()[name = string("model_encoder_layer_9_attention_self_key_bias"), val = tensor<fp32, [384]>(BLOBFILE(path = string("@model_path/weights/weight.bin"), offset = uint64(28444864)))];
            tensor<fp32, [384, 384]> model_encoder_layer_9_attention_self_key_weight_quantized = constexpr_blockwise_shift_scale(data = tensor<int8, [384, 384]>(BLOBFILE(path = string("@model_path/weights/weight.bin"), offset = uint64(28446464))), scale = tensor<fp32, [384, 1]>(BLOBFILE(path = string("@model_path/weights/weight.bin"), offset = uint64(28593984))))[name = string("model_encoder_layer_9_attention_self_key_weight_quantized")];
            tensor<fp32, [384]> model_encoder_layer_9_attention_self_value_bias = const()[name = string("model_encoder_layer_9_attention_self_value_bias"), val = tensor<fp32, [384]>(BLOBFILE(path = string("@model_path/weights/weight.bin"), offset = uint64(28595584)))];
            tensor<fp32, [384, 384]> model_encoder_layer_9_attention_self_value_weight_quantized = constexpr_blockwise_shift_scale(data = tensor<int8, [384, 384]>(BLOBFILE(path = string("@model_path/weights/weight.bin"), offset = uint64(28597184))), scale = tensor<fp32, [384, 1]>(BLOBFILE(path = string("@model_path/weights/weight.bin"), offset = uint64(28744704))))[name = string("model_encoder_layer_9_attention_self_value_weight_quantized")];
            tensor<fp32, [384]> model_encoder_layer_9_attention_output_dense_bias = const()[name = string("model_encoder_layer_9_attention_output_dense_bias"), val = tensor<fp32, [384]>(BLOBFILE(path = string("@model_path/weights/weight.bin"), offset = uint64(28746304)))];
            tensor<fp32, [384, 384]> model_encoder_layer_9_attention_output_dense_weight_quantized = constexpr_blockwise_shift_scale(data = tensor<int8, [384, 384]>(BLOBFILE(path = string("@model_path/weights/weight.bin"), offset = uint64(28747904))), scale = tensor<fp32, [384, 1]>(BLOBFILE(path = string("@model_path/weights/weight.bin"), offset = uint64(28895424))))[name = string("model_encoder_layer_9_attention_output_dense_weight_quantized")];
            tensor<fp32, [384]> model_encoder_layer_9_attention_output_LayerNorm_bias = const()[name = string("model_encoder_layer_9_attention_output_LayerNorm_bias"), val = tensor<fp32, [384]>(BLOBFILE(path = string("@model_path/weights/weight.bin"), offset = uint64(28897024)))];
            tensor<fp32, [384]> model_encoder_layer_9_attention_output_LayerNorm_weight = const()[name = string("model_encoder_layer_9_attention_output_LayerNorm_weight"), val = tensor<fp32, [384]>(BLOBFILE(path = string("@model_path/weights/weight.bin"), offset = uint64(28898624)))];
            tensor<fp32, [1536]> model_encoder_layer_9_intermediate_dense_bias = const()[name = string("model_encoder_layer_9_intermediate_dense_bias"), val = tensor<fp32, [1536]>(BLOBFILE(path = string("@model_path/weights/weight.bin"), offset = uint64(28900224)))];
            tensor<fp32, [1536, 384]> model_encoder_layer_9_intermediate_dense_weight_quantized = constexpr_blockwise_shift_scale(data = tensor<int8, [1536, 384]>(BLOBFILE(path = string("@model_path/weights/weight.bin"), offset = uint64(28906432))), scale = tensor<fp32, [1536, 1]>(BLOBFILE(path = string("@model_path/weights/weight.bin"), offset = uint64(29496320))))[name = string("model_encoder_layer_9_intermediate_dense_weight_quantized")];
            tensor<fp32, [384]> model_encoder_layer_9_output_dense_bias = const()[name = string("model_encoder_layer_9_output_dense_bias"), val = tensor<fp32, [384]>(BLOBFILE(path = string("@model_path/weights/weight.bin"), offset = uint64(29502528)))];
            tensor<fp32, [384, 1536]> model_encoder_layer_9_output_dense_weight_quantized = constexpr_blockwise_shift_scale(data = tensor<int8, [384, 1536]>(BLOBFILE(path = string("@model_path/weights/weight.bin"), offset = uint64(29504128))), scale = tensor<fp32, [384, 1]>(BLOBFILE(path = string("@model_path/weights/weight.bin"), offset = uint64(30094016))))[name = string("model_encoder_layer_9_output_dense_weight_quantized")];
            tensor<fp32, [384]> model_encoder_layer_9_output_LayerNorm_bias = const()[name = string("model_encoder_layer_9_output_LayerNorm_bias"), val = tensor<fp32, [384]>(BLOBFILE(path = string("@model_path/weights/weight.bin"), offset = uint64(30095616)))];
            tensor<fp32, [384]> model_encoder_layer_9_output_LayerNorm_weight = const()[name = string("model_encoder_layer_9_output_LayerNorm_weight"), val = tensor<fp32, [384]>(BLOBFILE(path = string("@model_path/weights/weight.bin"), offset = uint64(30097216)))];
            tensor<fp32, [384]> model_encoder_layer_10_attention_self_query_bias = const()[name = string("model_encoder_layer_10_attention_self_query_bias"), val = tensor<fp32, [384]>(BLOBFILE(path = string("@model_path/weights/weight.bin"), offset = uint64(30098816)))];
            tensor<fp32, [384, 384]> model_encoder_layer_10_attention_self_query_weight_quantized = constexpr_blockwise_shift_scale(data = tensor<int8, [384, 384]>(BLOBFILE(path = string("@model_path/weights/weight.bin"), offset = uint64(30100416))), scale = tensor<fp32, [384, 1]>(BLOBFILE(path = string("@model_path/weights/weight.bin"), offset = uint64(30247936))))[name = string("model_encoder_layer_10_attention_self_query_weight_quantized")];
            tensor<fp32, [384]> model_encoder_layer_10_attention_self_key_bias = const()[name = string("model_encoder_layer_10_attention_self_key_bias"), val = tensor<fp32, [384]>(BLOBFILE(path = string("@model_path/weights/weight.bin"), offset = uint64(30249536)))];
            tensor<fp32, [384, 384]> model_encoder_layer_10_attention_self_key_weight_quantized = constexpr_blockwise_shift_scale(data = tensor<int8, [384, 384]>(BLOBFILE(path = string("@model_path/weights/weight.bin"), offset = uint64(30251136))), scale = tensor<fp32, [384, 1]>(BLOBFILE(path = string("@model_path/weights/weight.bin"), offset = uint64(30398656))))[name = string("model_encoder_layer_10_attention_self_key_weight_quantized")];
            tensor<fp32, [384]> model_encoder_layer_10_attention_self_value_bias = const()[name = string("model_encoder_layer_10_attention_self_value_bias"), val = tensor<fp32, [384]>(BLOBFILE(path = string("@model_path/weights/weight.bin"), offset = uint64(30400256)))];
            tensor<fp32, [384, 384]> model_encoder_layer_10_attention_self_value_weight_quantized = constexpr_blockwise_shift_scale(data = tensor<int8, [384, 384]>(BLOBFILE(path = string("@model_path/weights/weight.bin"), offset = uint64(30401856))), scale = tensor<fp32, [384, 1]>(BLOBFILE(path = string("@model_path/weights/weight.bin"), offset = uint64(30549376))))[name = string("model_encoder_layer_10_attention_self_value_weight_quantized")];
            tensor<fp32, [384]> model_encoder_layer_10_attention_output_dense_bias = const()[name = string("model_encoder_layer_10_attention_output_dense_bias"), val = tensor<fp32, [384]>(BLOBFILE(path = string("@model_path/weights/weight.bin"), offset = uint64(30550976)))];
            tensor<fp32, [384, 384]> model_encoder_layer_10_attention_output_dense_weight_quantized = constexpr_blockwise_shift_scale(data = tensor<int8, [384, 384]>(BLOBFILE(path = string("@model_path/weights/weight.bin"), offset = uint64(30552576))), scale = tensor<fp32, [384, 1]>(BLOBFILE(path = string("@model_path/weights/weight.bin"), offset = uint64(30700096))))[name = string("model_encoder_layer_10_attention_output_dense_weight_quantized")];
            tensor<fp32, [384]> model_encoder_layer_10_attention_output_LayerNorm_bias = const()[name = string("model_encoder_layer_10_attention_output_LayerNorm_bias"), val = tensor<fp32, [384]>(BLOBFILE(path = string("@model_path/weights/weight.bin"), offset = uint64(30701696)))];
            tensor<fp32, [384]> model_encoder_layer_10_attention_output_LayerNorm_weight = const()[name = string("model_encoder_layer_10_attention_output_LayerNorm_weight"), val = tensor<fp32, [384]>(BLOBFILE(path = string("@model_path/weights/weight.bin"), offset = uint64(30703296)))];
            tensor<fp32, [1536]> model_encoder_layer_10_intermediate_dense_bias = const()[name = string("model_encoder_layer_10_intermediate_dense_bias"), val = tensor<fp32, [1536]>(BLOBFILE(path = string("@model_path/weights/weight.bin"), offset = uint64(30704896)))];
            tensor<fp32, [1536, 384]> model_encoder_layer_10_intermediate_dense_weight_quantized = constexpr_blockwise_shift_scale(data = tensor<int8, [1536, 384]>(BLOBFILE(path = string("@model_path/weights/weight.bin"), offset = uint64(30711104))), scale = tensor<fp32, [1536, 1]>(BLOBFILE(path = string("@model_path/weights/weight.bin"), offset = uint64(31300992))))[name = string("model_encoder_layer_10_intermediate_dense_weight_quantized")];
            tensor<fp32, [384]> model_encoder_layer_10_output_dense_bias = const()[name = string("model_encoder_layer_10_output_dense_bias"), val = tensor<fp32, [384]>(BLOBFILE(path = string("@model_path/weights/weight.bin"), offset = uint64(31307200)))];
            tensor<fp32, [384, 1536]> model_encoder_layer_10_output_dense_weight_quantized = constexpr_blockwise_shift_scale(data = tensor<int8, [384, 1536]>(BLOBFILE(path = string("@model_path/weights/weight.bin"), offset = uint64(31308800))), scale = tensor<fp32, [384, 1]>(BLOBFILE(path = string("@model_path/weights/weight.bin"), offset = uint64(31898688))))[name = string("model_encoder_layer_10_output_dense_weight_quantized")];
            tensor<fp32, [384]> model_encoder_layer_10_output_LayerNorm_bias = const()[name = string("model_encoder_layer_10_output_LayerNorm_bias"), val = tensor<fp32, [384]>(BLOBFILE(path = string("@model_path/weights/weight.bin"), offset = uint64(31900288)))];
            tensor<fp32, [384]> model_encoder_layer_10_output_LayerNorm_weight = const()[name = string("model_encoder_layer_10_output_LayerNorm_weight"), val = tensor<fp32, [384]>(BLOBFILE(path = string("@model_path/weights/weight.bin"), offset = uint64(31901888)))];
            tensor<fp32, [384]> model_encoder_layer_11_attention_self_query_bias = const()[name = string("model_encoder_layer_11_attention_self_query_bias"), val = tensor<fp32, [384]>(BLOBFILE(path = string("@model_path/weights/weight.bin"), offset = uint64(31903488)))];
            tensor<fp32, [384, 384]> model_encoder_layer_11_attention_self_query_weight_quantized = constexpr_blockwise_shift_scale(data = tensor<int8, [384, 384]>(BLOBFILE(path = string("@model_path/weights/weight.bin"), offset = uint64(31905088))), scale = tensor<fp32, [384, 1]>(BLOBFILE(path = string("@model_path/weights/weight.bin"), offset = uint64(32052608))))[name = string("model_encoder_layer_11_attention_self_query_weight_quantized")];
            tensor<fp32, [384]> model_encoder_layer_11_attention_self_key_bias = const()[name = string("model_encoder_layer_11_attention_self_key_bias"), val = tensor<fp32, [384]>(BLOBFILE(path = string("@model_path/weights/weight.bin"), offset = uint64(32054208)))];
            tensor<fp32, [384, 384]> model_encoder_layer_11_attention_self_key_weight_quantized = constexpr_blockwise_shift_scale(data = tensor<int8, [384, 384]>(BLOBFILE(path = string("@model_path/weights/weight.bin"), offset = uint64(32055808))), scale = tensor<fp32, [384, 1]>(BLOBFILE(path = string("@model_path/weights/weight.bin"), offset = uint64(32203328))))[name = string("model_encoder_layer_11_attention_self_key_weight_quantized")];
            tensor<fp32, [384]> model_encoder_layer_11_attention_self_value_bias = const()[name = string("model_encoder_layer_11_attention_self_value_bias"), val = tensor<fp32, [384]>(BLOBFILE(path = string("@model_path/weights/weight.bin"), offset = uint64(32204928)))];
            tensor<fp32, [384, 384]> model_encoder_layer_11_attention_self_value_weight_quantized = constexpr_blockwise_shift_scale(data = tensor<int8, [384, 384]>(BLOBFILE(path = string("@model_path/weights/weight.bin"), offset = uint64(32206528))), scale = tensor<fp32, [384, 1]>(BLOBFILE(path = string("@model_path/weights/weight.bin"), offset = uint64(32354048))))[name = string("model_encoder_layer_11_attention_self_value_weight_quantized")];
            tensor<fp32, [384]> model_encoder_layer_11_attention_output_dense_bias = const()[name = string("model_encoder_layer_11_attention_output_dense_bias"), val = tensor<fp32, [384]>(BLOBFILE(path = string("@model_path/weights/weight.bin"), offset = uint64(32355648)))];
            tensor<fp32, [384, 384]> model_encoder_layer_11_attention_output_dense_weight_quantized = constexpr_blockwise_shift_scale(data = tensor<int8, [384, 384]>(BLOBFILE(path = string("@model_path/weights/weight.bin"), offset = uint64(32357248))), scale = tensor<fp32, [384, 1]>(BLOBFILE(path = string("@model_path/weights/weight.bin"), offset = uint64(32504768))))[name = string("model_encoder_layer_11_attention_output_dense_weight_quantized")];
            tensor<fp32, [384]> model_encoder_layer_11_attention_output_LayerNorm_bias = const()[name = string("model_encoder_layer_11_attention_output_LayerNorm_bias"), val = tensor<fp32, [384]>(BLOBFILE(path = string("@model_path/weights/weight.bin"), offset = uint64(32506368)))];
            tensor<fp32, [384]> model_encoder_layer_11_attention_output_LayerNorm_weight = const()[name = string("model_encoder_layer_11_attention_output_LayerNorm_weight"), val = tensor<fp32, [384]>(BLOBFILE(path = string("@model_path/weights/weight.bin"), offset = uint64(32507968)))];
            tensor<fp32, [1536]> model_encoder_layer_11_intermediate_dense_bias = const()[name = string("model_encoder_layer_11_intermediate_dense_bias"), val = tensor<fp32, [1536]>(BLOBFILE(path = string("@model_path/weights/weight.bin"), offset = uint64(32509568)))];
            tensor<fp32, [1536, 384]> model_encoder_layer_11_intermediate_dense_weight_quantized = constexpr_blockwise_shift_scale(data = tensor<int8, [1536, 384]>(BLOBFILE(path = string("@model_path/weights/weight.bin"), offset = uint64(32515776))), scale = tensor<fp32, [1536, 1]>(BLOBFILE(path = string("@model_path/weights/weight.bin"), offset = uint64(33105664))))[name = string("model_encoder_layer_11_intermediate_dense_weight_quantized")];
            tensor<fp32, [384]> model_encoder_layer_11_output_dense_bias = const()[name = string("model_encoder_layer_11_output_dense_bias"), val = tensor<fp32, [384]>(BLOBFILE(path = string("@model_path/weights/weight.bin"), offset = uint64(33111872)))];
            tensor<fp32, [384, 1536]> model_encoder_layer_11_output_dense_weight_quantized = constexpr_blockwise_shift_scale(data = tensor<int8, [384, 1536]>(BLOBFILE(path = string("@model_path/weights/weight.bin"), offset = uint64(33113472))), scale = tensor<fp32, [384, 1]>(BLOBFILE(path = string("@model_path/weights/weight.bin"), offset = uint64(33703360))))[name = string("model_encoder_layer_11_output_dense_weight_quantized")];
            tensor<fp32, [384]> model_encoder_layer_11_output_LayerNorm_bias = const()[name = string("model_encoder_layer_11_output_LayerNorm_bias"), val = tensor<fp32, [384]>(BLOBFILE(path = string("@model_path/weights/weight.bin"), offset = uint64(33704960)))];
            tensor<fp32, [384]> model_encoder_layer_11_output_LayerNorm_weight = const()[name = string("model_encoder_layer_11_output_LayerNorm_weight"), val = tensor<fp32, [384]>(BLOBFILE(path = string("@model_path/weights/weight.bin"), offset = uint64(33706560)))];
            int32 var_6 = const()[name = string("op_6"), val = int32(32)];
            int32 var_7 = const()[name = string("op_7"), val = int32(12)];
            fp32 var_8 = const()[name = string("op_8"), val = fp32(0x1p+0)];
            int32 var_13 = const()[name = string("op_13"), val = int32(-1)];
            fp32 var_15 = const()[name = string("op_15"), val = fp32(0x1.197998p-40)];
            int32 var_16 = const()[name = string("op_16"), val = int32(384)];
            tensor<int32, [2]> var_26_shape = shape(x = input_ids)[name = string("op_26_shape")];
            int32 gather_0_batch_dims_0 = const()[name = string("gather_0_batch_dims_0"), val = int32(0)];
            bool gather_0_validate_indices_0 = const()[name = string("gather_0_validate_indices_0"), val = bool(false)];
            int32 select_0 = const()[name = string("select_0"), val = int32(0)];
            int32 gather_0_axis_0 = const()[name = string("gather_0_axis_0"), val = int32(0)];
            int32 gather_0 = gather(axis = gather_0_axis_0, batch_dims = gather_0_batch_dims_0, indices = select_0, validate_indices = gather_0_validate_indices_0, x = var_26_shape)[name = string("gather_0")];
            int32 gather_1_batch_dims_0 = const()[name = string("gather_1_batch_dims_0"), val = int32(0)];
            bool gather_1_validate_indices_0 = const()[name = string("gather_1_validate_indices_0"), val = bool(false)];
            int32 select_1 = const()[name = string("select_1"), val = int32(1)];
            int32 gather_1_axis_0 = const()[name = string("gather_1_axis_0"), val = int32(0)];
            int32 gather_1 = gather(axis = gather_1_axis_0, batch_dims = gather_1_batch_dims_0, indices = select_1, validate_indices = gather_1_validate_indices_0, x = var_26_shape)[name = string("gather_1")];
            int32 concat_0_values0_0 = const()[name = string("concat_0_values0_0"), val = int32(1)];
            int32 concat_0_axis_0 = const()[name = string("concat_0_axis_0"), val = int32(0)];
            bool concat_0_interleave_0 = const()[name = string("concat_0_interleave_0"), val = bool(false)];
            tensor<int32, [2]> concat_0 = concat(axis = concat_0_axis_0, interleave = concat_0_interleave_0, values = (concat_0_values0_0, gather_1))[name = string("concat_0")];
            tensor<int32, [2]> buffered_token_type_ids_begin_0 = const()[name = string("buffered_token_type_ids_begin_0"), val = tensor<int32, [2]>([0, 0])];
            tensor<bool, [2]> buffered_token_type_ids_end_mask_0 = const()[name = string("buffered_token_type_ids_end_mask_0"), val = tensor<bool, [2]>([true, false])];
            tensor<int32, [1, ?]> buffered_token_type_ids = slice_by_index(begin = buffered_token_type_ids_begin_0, end = concat_0, end_mask = buffered_token_type_ids_end_mask_0, x = model_embeddings_token_type_ids)[name = string("buffered_token_type_ids")];
            int32 concat_1_axis_0 = const()[name = string("concat_1_axis_0"), val = int32(0)];
            bool concat_1_interleave_0 = const()[name = string("concat_1_interleave_0"), val = bool(false)];
            tensor<int32, [2]> concat_1 = concat(axis = concat_1_axis_0, interleave = concat_1_interleave_0, values = (gather_0, gather_1))[name = string("concat_1")];
            tensor<int32, [2]> shape_0 = shape(x = buffered_token_type_ids)[name = string("shape_0")];
            int32 equal_0_y_0 = const()[name = string("equal_0_y_0"), val = int32(-1)];
            tensor<bool, [2]> equal_0 = equal(x = concat_1, y = equal_0_y_0)[name = string("equal_0")];
            tensor<int32, [2]> select_0_1 = select(a = shape_0, b = concat_1, cond = equal_0)[name = string("select_0_1")];
            tensor<int32, [2]> real_div_0 = real_div(x = select_0_1, y = shape_0)[name = string("real_div_0")];
            tensor<int32, [?, ?]> input_1 = tile(reps = real_div_0, x = buffered_token_type_ids)[name = string("input_1")];
            tensor<int32, [2]> input_3_begin_0 = const()[name = string("input_3_begin_0"), val = tensor<int32, [2]>([0, 0])];
            tensor<bool, [2]> input_3_end_mask_0 = const()[name = string("input_3_end_mask_0"), val = tensor<bool, [2]>([true, false])];
            tensor<int32, [1, ?]> input_3 = slice_by_index(begin = input_3_begin_0, end = concat_0, end_mask = input_3_end_mask_0, x = model_embeddings_position_ids)[name = string("input_3")];
            int32 inputs_embeds_batch_dims_0 = const()[name = string("inputs_embeds_batch_dims_0"), val = int32(0)];
            bool inputs_embeds_validate_indices_0 = const()[name = string("inputs_embeds_validate_indices_0"), val = bool(false)];
            int32 greater_equal_2_y_0 = const()[name = string("greater_equal_2_y_0"), val = int32(0)];
            tensor<bool, [?, ?]> greater_equal_2 = greater_equal(x = input_ids, y = greater_equal_2_y_0)[name = string("greater_equal_2")];
            int32 slice_by_index_2 = const()[name = string("slice_by_index_2"), val = int32(30522)];
            tensor<int32, [?, ?]> add_2 = add(x = input_ids, y = slice_by_index_2)[name = string("add_2")];
            tensor<int32, [?, ?]> select_3 = select(a = input_ids, b = add_2, cond = greater_equal_2)[name = string("select_3")];
            int32 greater_equal_2_y_0_1 = const()[name = string("greater_equal_2_y_0_1"), val = int32(0)];
            tensor<bool, [?, ?]> greater_equal_2_1 = greater_equal(x = select_3, y = greater_equal_2_y_0_1)[name = string("greater_equal_2_1")];
            int32 slice_by_index_2_1 = const()[name = string("slice_by_index_2_1"), val = int32(30522)];
            tensor<int32, [?, ?]> add_2_1 = add(x = select_3, y = slice_by_index_2_1)[name = string("add_2_1")];
            tensor<int32, [?, ?]> select_2 = select(a = select_3, b = add_2_1, cond = greater_equal_2_1)[name = string("select_2")];
            int32 inputs_embeds_axis_0 = const()[name = string("inputs_embeds_axis_0"), val = int32(0)];
            tensor<fp32, [?, ?, 384]> inputs_embeds = gather(axis = inputs_embeds_axis_0, batch_dims = inputs_embeds_batch_dims_0, indices = select_2, validate_indices = inputs_embeds_validate_indices_0, x = model_embeddings_word_embeddings_weight_quantized)[name = string("inputs_embeds")];
            int32 token_type_embeddings_1_batch_dims_0 = const()[name = string("token_type_embeddings_1_batch_dims_0"), val = int32(0)];
            bool token_type_embeddings_1_validate_indices_0 = const()[name = string("token_type_embeddings_1_validate_indices_0"), val = bool(false)];
            int32 greater_equal_3_y_0 = const()[name = string("greater_equal_3_y_0"), val = int32(0)];
            tensor<bool, [?, ?]> greater_equal_3 = greater_equal(x = input_1, y = greater_equal_3_y_0)[name = string("greater_equal_3")];
            int32 slice_by_index_3 = const()[name = string("slice_by_index_3"), val = int32(2)];
            tensor<int32, [?, ?]> add_3 = add(x = input_1, y = slice_by_index_3)[name = string("add_3")];
            tensor<int32, [?, ?]> select_4 = select(a = input_1, b = add_3, cond = greater_equal_3)[name = string("select_4")];
            int32 greater_equal_3_y_0_1 = const()[name = string("greater_equal_3_y_0_1"), val = int32(0)];
            tensor<bool, [?, ?]> greater_equal_3_1 = greater_equal(x = select_4, y = greater_equal_3_y_0_1)[name = string("greater_equal_3_1")];
            int32 slice_by_index_3_1 = const()[name = string("slice_by_index_3_1"), val = int32(2)];
            tensor<int32, [?, ?]> add_3_1 = add(x = select_4, y = slice_by_index_3_1)[name = string("add_3_1")];
            tensor<int32, [?, ?]> select_3_1 = select(a = select_4, b = add_3_1, cond = greater_equal_3_1)[name = string("select_3_1")];
            int32 token_type_embeddings_1_axis_0 = const()[name = string("token_type_embeddings_1_axis_0"), val = int32(0)];
            tensor<fp32, [?, ?, 384]> token_type_embeddings_1 = gather(axis = token_type_embeddings_1_axis_0, batch_dims = token_type_embeddings_1_batch_dims_0, indices = select_3_1, validate_indices = token_type_embeddings_1_validate_indices_0, x = model_embeddings_token_type_embeddings_weight)[name = string("token_type_embeddings_1")];
            tensor<fp32, [?, ?, 384]> embeddings_1 = add(x = inputs_embeds, y = token_type_embeddings_1)[name = string("embeddings_1")];
            int32 position_embeddings_1_batch_dims_0 = const()[name = string("position_embeddings_1_batch_dims_0"), val = int32(0)];
            bool position_embeddings_1_validate_indices_0 = const()[name = string("position_embeddings_1_validate_indices_0"), val = bool(false)];
            int32 greater_equal_4_y_0 = const()[name = string("greater_equal_4_y_0"), val = int32(0)];
            tensor<bool, [1, ?]> greater_equal_4 = greater_equal(x = input_3, y = greater_equal_4_y_0)[name = string("greater_equal_4")];
            int32 slice_by_index_4 = const()[name = string("slice_by_index_4"), val = int32(512)];
            tensor<int32, [1, ?]> add_4 = add(x = input_3, y = slice_by_index_4)[name = string("add_4")];
            tensor<int32, [1, ?]> select_5 = select(a = input_3, b = add_4, cond = greater_equal_4)[name = string("select_5")];
            int32 greater_equal_4_y_0_1 = const()[name = string("greater_equal_4_y_0_1"), val = int32(0)];
            tensor<bool, [1, ?]> greater_equal_4_1 = greater_equal(x = select_5, y = greater_equal_4_y_0_1)[name = string("greater_equal_4_1")];
            int32 slice_by_index_4_1 = const()[name = string("slice_by_index_4_1"), val = int32(512)];
            tensor<int32, [1, ?]> add_4_1 = add(x = select_5, y = slice_by_index_4_1)[name = string("add_4_1")];
            tensor<int32, [1, ?]> select_4_1 = select(a = select_5, b = add_4_1, cond = greater_equal_4_1)[name = string("select_4_1")];
            int32 position_embeddings_1_axis_0 = const()[name = string("position_embeddings_1_axis_0"), val = int32(0)];
            tensor<fp32, [1, ?, 384]> position_embeddings_1 = gather(axis = position_embeddings_1_axis_0, batch_dims = position_embeddings_1_batch_dims_0, indices = select_4_1, validate_indices = position_embeddings_1_validate_indices_0, x = model_embeddings_position_embeddings_weight_quantized)[name = string("position_embeddings_1")];
            tensor<fp32, [?, ?, 384]> input_5 = add(x = embeddings_1, y = position_embeddings_1)[name = string("input_5")];
            tensor<int32, [1]> input_7_axes_0 = const()[name = string("input_7_axes_0"), val = tensor<int32, [1]>([-1])];
            tensor<fp32, [?, ?, 384]> input_7 = layer_norm(axes = input_7_axes_0, beta = model_embeddings_LayerNorm_bias, epsilon = var_15, gamma = model_embeddings_LayerNorm_weight, x = input_5)[name = string("input_7")];
            tensor<int32, [1]> var_58_axes_0 = const()[name = string("op_58_axes_0"), val = tensor<int32, [1]>([1])];
            tensor<int32, [?, 1, ?]> var_58 = expand_dims(axes = var_58_axes_0, x = attention_mask)[name = string("op_58")];
            tensor<int32, [1]> var_59_axes_0 = const()[name = string("op_59_axes_0"), val = tensor<int32, [1]>([2])];
            tensor<int32, [?, 1, 1, ?]> var_59 = expand_dims(axes = var_59_axes_0, x = var_58)[name = string("op_59")];
            string var_61_dtype_0 = const()[name = string("op_61_dtype_0"), val = string("fp32")];
            tensor<fp32, [?, 1, 1, ?]> var_61 = cast(dtype = var_61_dtype_0, x = var_59)[name = string("cast_0")];
            tensor<fp32, [?, 1, 1, ?]> var_62 = sub(x = var_8, y = var_61)[name = string("op_62")];
            fp32 var_63 = const()[name = string("op_63"), val = fp32(-0x1.fffffep+127)];
            tensor<fp32, [?, 1, 1, ?]> attention_mask_1 = mul(x = var_62, y = var_63)[name = string("attention_mask")];
            tensor<int32, [3]> var_97_shape = shape(x = input_7)[name = string("op_97_shape")];
            int32 gather_3_batch_dims_0 = const()[name = string("gather_3_batch_dims_0"), val = int32(0)];
            bool gather_3_validate_indices_0 = const()[name = string("gather_3_validate_indices_0"), val = bool(false)];
            int32 select_5_1 = const()[name = string("select_5_1"), val = int32(0)];
            int32 gather_3_axis_0 = const()[name = string("gather_3_axis_0"), val = int32(0)];
            int32 gather_3 = gather(axis = gather_3_axis_0, batch_dims = gather_3_batch_dims_0, indices = select_5_1, validate_indices = gather_3_validate_indices_0, x = var_97_shape)[name = string("gather_3")];
            tensor<fp32, [?, ?, 384]> query_layer_1 = linear(bias = model_encoder_layer_0_attention_self_query_bias, weight = model_encoder_layer_0_attention_self_query_weight_quantized, x = input_7)[name = string("linear_0")];
            int32 concat_3_axis_0 = const()[name = string("concat_3_axis_0"), val = int32(0)];
            bool concat_3_interleave_0 = const()[name = string("concat_3_interleave_0"), val = bool(false)];
            tensor<int32, [4]> concat_3 = concat(axis = concat_3_axis_0, interleave = concat_3_interleave_0, values = (gather_3, var_13, var_7, var_6))[name = string("concat_3")];
            tensor<fp32, [?, ?, 12, 32]> var_102 = reshape(shape = concat_3, x = query_layer_1)[name = string("op_102")];
            tensor<fp32, [?, ?, 384]> key_layer_1 = linear(bias = model_encoder_layer_0_attention_self_key_bias, weight = model_encoder_layer_0_attention_self_key_weight_quantized, x = input_7)[name = string("linear_1")];
            tensor<fp32, [?, ?, 12, 32]> var_108 = reshape(shape = concat_3, x = key_layer_1)[name = string("op_108")];
            tensor<fp32, [?, ?, 384]> value_layer_1 = linear(bias = model_encoder_layer_0_attention_self_value_bias, weight = model_encoder_layer_0_attention_self_value_weight_quantized, x = input_7)[name = string("linear_2")];
            tensor<fp32, [?, ?, 12, 32]> var_114 = reshape(shape = concat_3, x = value_layer_1)[name = string("op_114")];
            tensor<int32, [4]> value_layer_3_perm_0 = const()[name = string("value_layer_3_perm_0"), val = tensor<int32, [4]>([0, 2, -3, -1])];
            bool attention_scores_1_transpose_x_0 = const()[name = string("attention_scores_1_transpose_x_0"), val = bool(false)];
            bool attention_scores_1_transpose_y_0 = const()[name = string("attention_scores_1_transpose_y_0"), val = bool(false)];
            tensor<int32, [4]> transpose_48_perm_0 = const()[name = string("transpose_48_perm_0"), val = tensor<int32, [4]>([0, 2, -3, -1])];
            tensor<int32, [4]> transpose_49_perm_0 = const()[name = string("transpose_49_perm_0"), val = tensor<int32, [4]>([0, 2, -1, -3])];
            tensor<fp32, [?, 12, 32, ?]> transpose_49 = transpose(perm = transpose_49_perm_0, x = var_108)[name = string("transpose_118")];
            tensor<fp32, [?, 12, ?, 32]> transpose_48 = transpose(perm = transpose_48_perm_0, x = var_102)[name = string("transpose_119")];
            tensor<fp32, [?, 12, ?, ?]> attention_scores_1 = matmul(transpose_x = attention_scores_1_transpose_x_0, transpose_y = attention_scores_1_transpose_y_0, x = transpose_48, y = transpose_49)[name = string("attention_scores_1")];
            fp32 _inversed_attention_scores_3_y_0 = const()[name = string("_inversed_attention_scores_3_y_0"), val = fp32(0x1.6a09e6p-3)];
            tensor<fp32, [?, 12, ?, ?]> _inversed_attention_scores_3 = mul(x = attention_scores_1, y = _inversed_attention_scores_3_y_0)[name = string("_inversed_attention_scores_3")];
            tensor<fp32, [?, 12, ?, ?]> input_9 = add(x = _inversed_attention_scores_3, y = attention_mask_1)[name = string("input_9")];
            tensor<fp32, [?, 12, ?, ?]> input_11 = softmax(axis = var_13, x = input_9)[name = string("input_11")];
            bool context_layer_1_transpose_x_0 = const()[name = string("context_layer_1_transpose_x_0"), val = bool(false)];
            bool context_layer_1_transpose_y_0 = const()[name = string("context_layer_1_transpose_y_0"), val = bool(false)];
            tensor<fp32, [?, 12, ?, 32]> value_layer_3 = transpose(perm = value_layer_3_perm_0, x = var_114)[name = string("transpose_117")];
            tensor<fp32, [?, 12, ?, 32]> context_layer_1 = matmul(transpose_x = context_layer_1_transpose_x_0, transpose_y = context_layer_1_transpose_y_0, x = input_11, y = value_layer_3)[name = string("context_layer_1")];
            tensor<int32, [4]> var_124 = const()[name = string("op_124"), val = tensor<int32, [4]>([0, 2, 1, 3])];
            tensor<fp32, [?, ?, 12, 32]> var_125 = transpose(perm = var_124, x = context_layer_1)[name = string("transpose_116")];
            tensor<int32, [4]> var_127_shape = shape(x = var_125)[name = string("op_127_shape")];
            int32 gather_4_batch_dims_0 = const()[name = string("gather_4_batch_dims_0"), val = int32(0)];
            bool gather_4_validate_indices_0 = const()[name = string("gather_4_validate_indices_0"), val = bool(false)];
            int32 select_6 = const()[name = string("select_6"), val = int32(0)];
            int32 gather_4_axis_0 = const()[name = string("gather_4_axis_0"), val = int32(0)];
            int32 gather_4 = gather(axis = gather_4_axis_0, batch_dims = gather_4_batch_dims_0, indices = select_6, validate_indices = gather_4_validate_indices_0, x = var_127_shape)[name = string("gather_4")];
            int32 gather_5_batch_dims_0 = const()[name = string("gather_5_batch_dims_0"), val = int32(0)];
            bool gather_5_validate_indices_0 = const()[name = string("gather_5_validate_indices_0"), val = bool(false)];
            int32 select_7 = const()[name = string("select_7"), val = int32(1)];
            int32 gather_5_axis_0 = const()[name = string("gather_5_axis_0"), val = int32(0)];
            int32 gather_5 = gather(axis = gather_5_axis_0, batch_dims = gather_5_batch_dims_0, indices = select_7, validate_indices = gather_5_validate_indices_0, x = var_127_shape)[name = string("gather_5")];
            int32 concat_6_axis_0 = const()[name = string("concat_6_axis_0"), val = int32(0)];
            bool concat_6_interleave_0 = const()[name = string("concat_6_interleave_0"), val = bool(false)];
            tensor<int32, [3]> concat_6 = concat(axis = concat_6_axis_0, interleave = concat_6_interleave_0, values = (gather_4, gather_5, var_16))[name = string("concat_6")];
            tensor<fp32, [?, ?, 384]> input_13 = reshape(shape = concat_6, x = var_125)[name = string("input_13")];
            tensor<fp32, [?, ?, 384]> input_15 = linear(bias = model_encoder_layer_0_attention_output_dense_bias, weight = model_encoder_layer_0_attention_output_dense_weight_quantized, x = input_13)[name = string("linear_3")];
            tensor<fp32, [?, ?, 384]> input_17 = add(x = input_15, y = input_7)[name = string("input_17")];
            tensor<int32, [1]> input_19_axes_0 = const()[name = string("input_19_axes_0"), val = tensor<int32, [1]>([-1])];
            tensor<fp32, [?, ?, 384]> input_19 = layer_norm(axes = input_19_axes_0, beta = model_encoder_layer_0_attention_output_LayerNorm_bias, epsilon = var_15, gamma = model_encoder_layer_0_attention_output_LayerNorm_weight, x = input_17)[name = string("input_19")];
            tensor<fp32, [?, ?, 1536]> input_21 = linear(bias = model_encoder_layer_0_intermediate_dense_bias, weight = model_encoder_layer_0_intermediate_dense_weight_quantized, x = input_19)[name = string("linear_4")];
            string input_23_mode_0 = const()[name = string("input_23_mode_0"), val = string("EXACT")];
            tensor<fp32, [?, ?, 1536]> input_23 = gelu(mode = input_23_mode_0, x = input_21)[name = string("input_23")];
            tensor<fp32, [?, ?, 384]> input_25 = linear(bias = model_encoder_layer_0_output_dense_bias, weight = model_encoder_layer_0_output_dense_weight_quantized, x = input_23)[name = string("linear_5")];
            tensor<fp32, [?, ?, 384]> input_27 = add(x = input_25, y = input_19)[name = string("input_27")];
            tensor<int32, [1]> hidden_states_7_axes_0 = const()[name = string("hidden_states_7_axes_0"), val = tensor<int32, [1]>([-1])];
            tensor<fp32, [?, ?, 384]> hidden_states_7 = layer_norm(axes = hidden_states_7_axes_0, beta = model_encoder_layer_0_output_LayerNorm_bias, epsilon = var_15, gamma = model_encoder_layer_0_output_LayerNorm_weight, x = input_27)[name = string("hidden_states_7")];
            tensor<int32, [3]> var_166_shape = shape(x = hidden_states_7)[name = string("op_166_shape")];
            int32 gather_6_batch_dims_0 = const()[name = string("gather_6_batch_dims_0"), val = int32(0)];
            bool gather_6_validate_indices_0 = const()[name = string("gather_6_validate_indices_0"), val = bool(false)];
            int32 select_8 = const()[name = string("select_8"), val = int32(0)];
            int32 gather_6_axis_0 = const()[name = string("gather_6_axis_0"), val = int32(0)];
            int32 gather_6 = gather(axis = gather_6_axis_0, batch_dims = gather_6_batch_dims_0, indices = select_8, validate_indices = gather_6_validate_indices_0, x = var_166_shape)[name = string("gather_6")];
            tensor<fp32, [?, ?, 384]> query_layer_5 = linear(bias = model_encoder_layer_1_attention_self_query_bias, weight = model_encoder_layer_1_attention_self_query_weight_quantized, x = hidden_states_7)[name = string("linear_6")];
            int32 concat_7_axis_0 = const()[name = string("concat_7_axis_0"), val = int32(0)];
            bool concat_7_interleave_0 = const()[name = string("concat_7_interleave_0"), val = bool(false)];
            tensor<int32, [4]> concat_7 = concat(axis = concat_7_axis_0, interleave = concat_7_interleave_0, values = (gather_6, var_13, var_7, var_6))[name = string("concat_7")];
            tensor<fp32, [?, ?, 12, 32]> var_171 = reshape(shape = concat_7, x = query_layer_5)[name = string("op_171")];
            tensor<fp32, [?, ?, 384]> key_layer_5 = linear(bias = model_encoder_layer_1_attention_self_key_bias, weight = model_encoder_layer_1_attention_self_key_weight_quantized, x = hidden_states_7)[name = string("linear_7")];
            tensor<fp32, [?, ?, 12, 32]> var_177 = reshape(shape = concat_7, x = key_layer_5)[name = string("op_177")];
            tensor<fp32, [?, ?, 384]> value_layer_5 = linear(bias = model_encoder_layer_1_attention_self_value_bias, weight = model_encoder_layer_1_attention_self_value_weight_quantized, x = hidden_states_7)[name = string("linear_8")];
            tensor<fp32, [?, ?, 12, 32]> var_183 = reshape(shape = concat_7, x = value_layer_5)[name = string("op_183")];
            tensor<int32, [4]> value_layer_7_perm_0 = const()[name = string("value_layer_7_perm_0"), val = tensor<int32, [4]>([0, 2, -3, -1])];
            bool attention_scores_5_transpose_x_0 = const()[name = string("attention_scores_5_transpose_x_0"), val = bool(false)];
            bool attention_scores_5_transpose_y_0 = const()[name = string("attention_scores_5_transpose_y_0"), val = bool(false)];
            tensor<int32, [4]> transpose_50_perm_0 = const()[name = string("transpose_50_perm_0"), val = tensor<int32, [4]>([0, 2, -3, -1])];
            tensor<int32, [4]> transpose_51_perm_0 = const()[name = string("transpose_51_perm_0"), val = tensor<int32, [4]>([0, 2, -1, -3])];
            tensor<fp32, [?, 12, 32, ?]> transpose_51 = transpose(perm = transpose_51_perm_0, x = var_177)[name = string("transpose_114")];
            tensor<fp32, [?, 12, ?, 32]> transpose_50 = transpose(perm = transpose_50_perm_0, x = var_171)[name = string("transpose_115")];
            tensor<fp32, [?, 12, ?, ?]> attention_scores_5 = matmul(transpose_x = attention_scores_5_transpose_x_0, transpose_y = attention_scores_5_transpose_y_0, x = transpose_50, y = transpose_51)[name = string("attention_scores_5")];
            fp32 _inversed_attention_scores_7_y_0 = const()[name = string("_inversed_attention_scores_7_y_0"), val = fp32(0x1.6a09e6p-3)];
            tensor<fp32, [?, 12, ?, ?]> _inversed_attention_scores_7 = mul(x = attention_scores_5, y = _inversed_attention_scores_7_y_0)[name = string("_inversed_attention_scores_7")];
            tensor<fp32, [?, 12, ?, ?]> input_29 = add(x = _inversed_attention_scores_7, y = attention_mask_1)[name = string("input_29")];
            tensor<fp32, [?, 12, ?, ?]> input_31 = softmax(axis = var_13, x = input_29)[name = string("input_31")];
            bool context_layer_5_transpose_x_0 = const()[name = string("context_layer_5_transpose_x_0"), val = bool(false)];
            bool context_layer_5_transpose_y_0 = const()[name = string("context_layer_5_transpose_y_0"), val = bool(false)];
            tensor<fp32, [?, 12, ?, 32]> value_layer_7 = transpose(perm = value_layer_7_perm_0, x = var_183)[name = string("transpose_113")];
            tensor<fp32, [?, 12, ?, 32]> context_layer_5 = matmul(transpose_x = context_layer_5_transpose_x_0, transpose_y = context_layer_5_transpose_y_0, x = input_31, y = value_layer_7)[name = string("context_layer_5")];
            tensor<int32, [4]> var_193 = const()[name = string("op_193"), val = tensor<int32, [4]>([0, 2, 1, 3])];
            tensor<fp32, [?, ?, 12, 32]> var_194 = transpose(perm = var_193, x = context_layer_5)[name = string("transpose_112")];
            tensor<int32, [4]> var_196_shape = shape(x = var_194)[name = string("op_196_shape")];
            int32 gather_7_batch_dims_0 = const()[name = string("gather_7_batch_dims_0"), val = int32(0)];
            bool gather_7_validate_indices_0 = const()[name = string("gather_7_validate_indices_0"), val = bool(false)];
            int32 select_9 = const()[name = string("select_9"), val = int32(0)];
            int32 gather_7_axis_0 = const()[name = string("gather_7_axis_0"), val = int32(0)];
            int32 gather_7 = gather(axis = gather_7_axis_0, batch_dims = gather_7_batch_dims_0, indices = select_9, validate_indices = gather_7_validate_indices_0, x = var_196_shape)[name = string("gather_7")];
            int32 gather_8_batch_dims_0 = const()[name = string("gather_8_batch_dims_0"), val = int32(0)];
            bool gather_8_validate_indices_0 = const()[name = string("gather_8_validate_indices_0"), val = bool(false)];
            int32 select_10 = const()[name = string("select_10"), val = int32(1)];
            int32 gather_8_axis_0 = const()[name = string("gather_8_axis_0"), val = int32(0)];
            int32 gather_8 = gather(axis = gather_8_axis_0, batch_dims = gather_8_batch_dims_0, indices = select_10, validate_indices = gather_8_validate_indices_0, x = var_196_shape)[name = string("gather_8")];
            int32 concat_10_axis_0 = const()[name = string("concat_10_axis_0"), val = int32(0)];
            bool concat_10_interleave_0 = const()[name = string("concat_10_interleave_0"), val = bool(false)];
            tensor<int32, [3]> concat_10 = concat(axis = concat_10_axis_0, interleave = concat_10_interleave_0, values = (gather_7, gather_8, var_16))[name = string("concat_10")];
            tensor<fp32, [?, ?, 384]> input_33 = reshape(shape = concat_10, x = var_194)[name = string("input_33")];
            tensor<fp32, [?, ?, 384]> input_35 = linear(bias = model_encoder_layer_1_attention_output_dense_bias, weight = model_encoder_layer_1_attention_output_dense_weight_quantized, x = input_33)[name = string("linear_9")];
            tensor<fp32, [?, ?, 384]> input_37 = add(x = input_35, y = hidden_states_7)[name = string("input_37")];
            tensor<int32, [1]> input_39_axes_0 = const()[name = string("input_39_axes_0"), val = tensor<int32, [1]>([-1])];
            tensor<fp32, [?, ?, 384]> input_39 = layer_norm(axes = input_39_axes_0, beta = model_encoder_layer_1_attention_output_LayerNorm_bias, epsilon = var_15, gamma = model_encoder_layer_1_attention_output_LayerNorm_weight, x = input_37)[name = string("input_39")];
            tensor<fp32, [?, ?, 1536]> input_41 = linear(bias = model_encoder_layer_1_intermediate_dense_bias, weight = model_encoder_layer_1_intermediate_dense_weight_quantized, x = input_39)[name = string("linear_10")];
            string input_43_mode_0 = const()[name = string("input_43_mode_0"), val = string("EXACT")];
            tensor<fp32, [?, ?, 1536]> input_43 = gelu(mode = input_43_mode_0, x = input_41)[name = string("input_43")];
            tensor<fp32, [?, ?, 384]> input_45 = linear(bias = model_encoder_layer_1_output_dense_bias, weight = model_encoder_layer_1_output_dense_weight_quantized, x = input_43)[name = string("linear_11")];
            tensor<fp32, [?, ?, 384]> input_47 = add(x = input_45, y = input_39)[name = string("input_47")];
            tensor<int32, [1]> hidden_states_13_axes_0 = const()[name = string("hidden_states_13_axes_0"), val = tensor<int32, [1]>([-1])];
            tensor<fp32, [?, ?, 384]> hidden_states_13 = layer_norm(axes = hidden_states_13_axes_0, beta = model_encoder_layer_1_output_LayerNorm_bias, epsilon = var_15, gamma = model_encoder_layer_1_output_LayerNorm_weight, x = input_47)[name = string("hidden_states_13")];
            tensor<int32, [3]> var_235_shape = shape(x = hidden_states_13)[name = string("op_235_shape")];
            int32 gather_9_batch_dims_0 = const()[name = string("gather_9_batch_dims_0"), val = int32(0)];
            bool gather_9_validate_indices_0 = const()[name = string("gather_9_validate_indices_0"), val = bool(false)];
            int32 select_11 = const()[name = string("select_11"), val = int32(0)];
            int32 gather_9_axis_0 = const()[name = string("gather_9_axis_0"), val = int32(0)];
            int32 gather_9 = gather(axis = gather_9_axis_0, batch_dims = gather_9_batch_dims_0, indices = select_11, validate_indices = gather_9_validate_indices_0, x = var_235_shape)[name = string("gather_9")];
            tensor<fp32, [?, ?, 384]> query_layer_9 = linear(bias = model_encoder_layer_2_attention_self_query_bias, weight = model_encoder_layer_2_attention_self_query_weight_quantized, x = hidden_states_13)[name = string("linear_12")];
            int32 concat_11_axis_0 = const()[name = string("concat_11_axis_0"), val = int32(0)];
            bool concat_11_interleave_0 = const()[name = string("concat_11_interleave_0"), val = bool(false)];
            tensor<int32, [4]> concat_11 = concat(axis = concat_11_axis_0, interleave = concat_11_interleave_0, values = (gather_9, var_13, var_7, var_6))[name = string("concat_11")];
            tensor<fp32, [?, ?, 12, 32]> var_240 = reshape(shape = concat_11, x = query_layer_9)[name = string("op_240")];
            tensor<fp32, [?, ?, 384]> key_layer_9 = linear(bias = model_encoder_layer_2_attention_self_key_bias, weight = model_encoder_layer_2_attention_self_key_weight_quantized, x = hidden_states_13)[name = string("linear_13")];
            tensor<fp32, [?, ?, 12, 32]> var_246 = reshape(shape = concat_11, x = key_layer_9)[name = string("op_246")];
            tensor<fp32, [?, ?, 384]> value_layer_9 = linear(bias = model_encoder_layer_2_attention_self_value_bias, weight = model_encoder_layer_2_attention_self_value_weight_quantized, x = hidden_states_13)[name = string("linear_14")];
            tensor<fp32, [?, ?, 12, 32]> var_252 = reshape(shape = concat_11, x = value_layer_9)[name = string("op_252")];
            tensor<int32, [4]> value_layer_11_perm_0 = const()[name = string("value_layer_11_perm_0"), val = tensor<int32, [4]>([0, 2, -3, -1])];
            bool attention_scores_9_transpose_x_0 = const()[name = string("attention_scores_9_transpose_x_0"), val = bool(false)];
            bool attention_scores_9_transpose_y_0 = const()[name = string("attention_scores_9_transpose_y_0"), val = bool(false)];
            tensor<int32, [4]> transpose_52_perm_0 = const()[name = string("transpose_52_perm_0"), val = tensor<int32, [4]>([0, 2, -3, -1])];
            tensor<int32, [4]> transpose_53_perm_0 = const()[name = string("transpose_53_perm_0"), val = tensor<int32, [4]>([0, 2, -1, -3])];
            tensor<fp32, [?, 12, 32, ?]> transpose_53 = transpose(perm = transpose_53_perm_0, x = var_246)[name = string("transpose_110")];
            tensor<fp32, [?, 12, ?, 32]> transpose_52 = transpose(perm = transpose_52_perm_0, x = var_240)[name = string("transpose_111")];
            tensor<fp32, [?, 12, ?, ?]> attention_scores_9 = matmul(transpose_x = attention_scores_9_transpose_x_0, transpose_y = attention_scores_9_transpose_y_0, x = transpose_52, y = transpose_53)[name = string("attention_scores_9")];
            fp32 _inversed_attention_scores_11_y_0 = const()[name = string("_inversed_attention_scores_11_y_0"), val = fp32(0x1.6a09e6p-3)];
            tensor<fp32, [?, 12, ?, ?]> _inversed_attention_scores_11 = mul(x = attention_scores_9, y = _inversed_attention_scores_11_y_0)[name = string("_inversed_attention_scores_11")];
            tensor<fp32, [?, 12, ?, ?]> input_49 = add(x = _inversed_attention_scores_11, y = attention_mask_1)[name = string("input_49")];
            tensor<fp32, [?, 12, ?, ?]> input_51 = softmax(axis = var_13, x = input_49)[name = string("input_51")];
            bool context_layer_9_transpose_x_0 = const()[name = string("context_layer_9_transpose_x_0"), val = bool(false)];
            bool context_layer_9_transpose_y_0 = const()[name = string("context_layer_9_transpose_y_0"), val = bool(false)];
            tensor<fp32, [?, 12, ?, 32]> value_layer_11 = transpose(perm = value_layer_11_perm_0, x = var_252)[name = string("transpose_109")];
            tensor<fp32, [?, 12, ?, 32]> context_layer_9 = matmul(transpose_x = context_layer_9_transpose_x_0, transpose_y = context_layer_9_transpose_y_0, x = input_51, y = value_layer_11)[name = string("context_layer_9")];
            tensor<int32, [4]> var_262 = const()[name = string("op_262"), val = tensor<int32, [4]>([0, 2, 1, 3])];
            tensor<fp32, [?, ?, 12, 32]> var_263 = transpose(perm = var_262, x = context_layer_9)[name = string("transpose_108")];
            tensor<int32, [4]> var_265_shape = shape(x = var_263)[name = string("op_265_shape")];
            int32 gather_10_batch_dims_0 = const()[name = string("gather_10_batch_dims_0"), val = int32(0)];
            bool gather_10_validate_indices_0 = const()[name = string("gather_10_validate_indices_0"), val = bool(false)];
            int32 select_12 = const()[name = string("select_12"), val = int32(0)];
            int32 gather_10_axis_0 = const()[name = string("gather_10_axis_0"), val = int32(0)];
            int32 gather_10 = gather(axis = gather_10_axis_0, batch_dims = gather_10_batch_dims_0, indices = select_12, validate_indices = gather_10_validate_indices_0, x = var_265_shape)[name = string("gather_10")];
            int32 gather_11_batch_dims_0 = const()[name = string("gather_11_batch_dims_0"), val = int32(0)];
            bool gather_11_validate_indices_0 = const()[name = string("gather_11_validate_indices_0"), val = bool(false)];
            int32 select_13 = const()[name = string("select_13"), val = int32(1)];
            int32 gather_11_axis_0 = const()[name = string("gather_11_axis_0"), val = int32(0)];
            int32 gather_11 = gather(axis = gather_11_axis_0, batch_dims = gather_11_batch_dims_0, indices = select_13, validate_indices = gather_11_validate_indices_0, x = var_265_shape)[name = string("gather_11")];
            int32 concat_14_axis_0 = const()[name = string("concat_14_axis_0"), val = int32(0)];
            bool concat_14_interleave_0 = const()[name = string("concat_14_interleave_0"), val = bool(false)];
            tensor<int32, [3]> concat_14 = concat(axis = concat_14_axis_0, interleave = concat_14_interleave_0, values = (gather_10, gather_11, var_16))[name = string("concat_14")];
            tensor<fp32, [?, ?, 384]> input_53 = reshape(shape = concat_14, x = var_263)[name = string("input_53")];
            tensor<fp32, [?, ?, 384]> input_55 = linear(bias = model_encoder_layer_2_attention_output_dense_bias, weight = model_encoder_layer_2_attention_output_dense_weight_quantized, x = input_53)[name = string("linear_15")];
            tensor<fp32, [?, ?, 384]> input_57 = add(x = input_55, y = hidden_states_13)[name = string("input_57")];
            tensor<int32, [1]> input_59_axes_0 = const()[name = string("input_59_axes_0"), val = tensor<int32, [1]>([-1])];
            tensor<fp32, [?, ?, 384]> input_59 = layer_norm(axes = input_59_axes_0, beta = model_encoder_layer_2_attention_output_LayerNorm_bias, epsilon = var_15, gamma = model_encoder_layer_2_attention_output_LayerNorm_weight, x = input_57)[name = string("input_59")];
            tensor<fp32, [?, ?, 1536]> input_61 = linear(bias = model_encoder_layer_2_intermediate_dense_bias, weight = model_encoder_layer_2_intermediate_dense_weight_quantized, x = input_59)[name = string("linear_16")];
            string input_63_mode_0 = const()[name = string("input_63_mode_0"), val = string("EXACT")];
            tensor<fp32, [?, ?, 1536]> input_63 = gelu(mode = input_63_mode_0, x = input_61)[name = string("input_63")];
            tensor<fp32, [?, ?, 384]> input_65 = linear(bias = model_encoder_layer_2_output_dense_bias, weight = model_encoder_layer_2_output_dense_weight_quantized, x = input_63)[name = string("linear_17")];
            tensor<fp32, [?, ?, 384]> input_67 = add(x = input_65, y = input_59)[name = string("input_67")];
            tensor<int32, [1]> hidden_states_19_axes_0 = const()[name = string("hidden_states_19_axes_0"), val = tensor<int32, [1]>([-1])];
            tensor<fp32, [?, ?, 384]> hidden_states_19 = layer_norm(axes = hidden_states_19_axes_0, beta = model_encoder_layer_2_output_LayerNorm_bias, epsilon = var_15, gamma = model_encoder_layer_2_output_LayerNorm_weight, x = input_67)[name = string("hidden_states_19")];
            tensor<int32, [3]> var_304_shape = shape(x = hidden_states_19)[name = string("op_304_shape")];
            int32 gather_12_batch_dims_0 = const()[name = string("gather_12_batch_dims_0"), val = int32(0)];
            bool gather_12_validate_indices_0 = const()[name = string("gather_12_validate_indices_0"), val = bool(false)];
            int32 select_14 = const()[name = string("select_14"), val = int32(0)];
            int32 gather_12_axis_0 = const()[name = string("gather_12_axis_0"), val = int32(0)];
            int32 gather_12 = gather(axis = gather_12_axis_0, batch_dims = gather_12_batch_dims_0, indices = select_14, validate_indices = gather_12_validate_indices_0, x = var_304_shape)[name = string("gather_12")];
            tensor<fp32, [?, ?, 384]> query_layer_13 = linear(bias = model_encoder_layer_3_attention_self_query_bias, weight = model_encoder_layer_3_attention_self_query_weight_quantized, x = hidden_states_19)[name = string("linear_18")];
            int32 concat_15_axis_0 = const()[name = string("concat_15_axis_0"), val = int32(0)];
            bool concat_15_interleave_0 = const()[name = string("concat_15_interleave_0"), val = bool(false)];
            tensor<int32, [4]> concat_15 = concat(axis = concat_15_axis_0, interleave = concat_15_interleave_0, values = (gather_12, var_13, var_7, var_6))[name = string("concat_15")];
            tensor<fp32, [?, ?, 12, 32]> var_309 = reshape(shape = concat_15, x = query_layer_13)[name = string("op_309")];
            tensor<fp32, [?, ?, 384]> key_layer_13 = linear(bias = model_encoder_layer_3_attention_self_key_bias, weight = model_encoder_layer_3_attention_self_key_weight_quantized, x = hidden_states_19)[name = string("linear_19")];
            tensor<fp32, [?, ?, 12, 32]> var_315 = reshape(shape = concat_15, x = key_layer_13)[name = string("op_315")];
            tensor<fp32, [?, ?, 384]> value_layer_13 = linear(bias = model_encoder_layer_3_attention_self_value_bias, weight = model_encoder_layer_3_attention_self_value_weight_quantized, x = hidden_states_19)[name = string("linear_20")];
            tensor<fp32, [?, ?, 12, 32]> var_321 = reshape(shape = concat_15, x = value_layer_13)[name = string("op_321")];
            tensor<int32, [4]> value_layer_15_perm_0 = const()[name = string("value_layer_15_perm_0"), val = tensor<int32, [4]>([0, 2, -3, -1])];
            bool attention_scores_13_transpose_x_0 = const()[name = string("attention_scores_13_transpose_x_0"), val = bool(false)];
            bool attention_scores_13_transpose_y_0 = const()[name = string("attention_scores_13_transpose_y_0"), val = bool(false)];
            tensor<int32, [4]> transpose_54_perm_0 = const()[name = string("transpose_54_perm_0"), val = tensor<int32, [4]>([0, 2, -3, -1])];
            tensor<int32, [4]> transpose_55_perm_0 = const()[name = string("transpose_55_perm_0"), val = tensor<int32, [4]>([0, 2, -1, -3])];
            tensor<fp32, [?, 12, 32, ?]> transpose_55 = transpose(perm = transpose_55_perm_0, x = var_315)[name = string("transpose_106")];
            tensor<fp32, [?, 12, ?, 32]> transpose_54 = transpose(perm = transpose_54_perm_0, x = var_309)[name = string("transpose_107")];
            tensor<fp32, [?, 12, ?, ?]> attention_scores_13 = matmul(transpose_x = attention_scores_13_transpose_x_0, transpose_y = attention_scores_13_transpose_y_0, x = transpose_54, y = transpose_55)[name = string("attention_scores_13")];
            fp32 _inversed_attention_scores_15_y_0 = const()[name = string("_inversed_attention_scores_15_y_0"), val = fp32(0x1.6a09e6p-3)];
            tensor<fp32, [?, 12, ?, ?]> _inversed_attention_scores_15 = mul(x = attention_scores_13, y = _inversed_attention_scores_15_y_0)[name = string("_inversed_attention_scores_15")];
            tensor<fp32, [?, 12, ?, ?]> input_69 = add(x = _inversed_attention_scores_15, y = attention_mask_1)[name = string("input_69")];
            tensor<fp32, [?, 12, ?, ?]> input_71 = softmax(axis = var_13, x = input_69)[name = string("input_71")];
            bool context_layer_13_transpose_x_0 = const()[name = string("context_layer_13_transpose_x_0"), val = bool(false)];
            bool context_layer_13_transpose_y_0 = const()[name = string("context_layer_13_transpose_y_0"), val = bool(false)];
            tensor<fp32, [?, 12, ?, 32]> value_layer_15 = transpose(perm = value_layer_15_perm_0, x = var_321)[name = string("transpose_105")];
            tensor<fp32, [?, 12, ?, 32]> context_layer_13 = matmul(transpose_x = context_layer_13_transpose_x_0, transpose_y = context_layer_13_transpose_y_0, x = input_71, y = value_layer_15)[name = string("context_layer_13")];
            tensor<int32, [4]> var_331 = const()[name = string("op_331"), val = tensor<int32, [4]>([0, 2, 1, 3])];
            tensor<fp32, [?, ?, 12, 32]> var_332 = transpose(perm = var_331, x = context_layer_13)[name = string("transpose_104")];
            tensor<int32, [4]> var_334_shape = shape(x = var_332)[name = string("op_334_shape")];
            int32 gather_13_batch_dims_0 = const()[name = string("gather_13_batch_dims_0"), val = int32(0)];
            bool gather_13_validate_indices_0 = const()[name = string("gather_13_validate_indices_0"), val = bool(false)];
            int32 select_15 = const()[name = string("select_15"), val = int32(0)];
            int32 gather_13_axis_0 = const()[name = string("gather_13_axis_0"), val = int32(0)];
            int32 gather_13 = gather(axis = gather_13_axis_0, batch_dims = gather_13_batch_dims_0, indices = select_15, validate_indices = gather_13_validate_indices_0, x = var_334_shape)[name = string("gather_13")];
            int32 gather_14_batch_dims_0 = const()[name = string("gather_14_batch_dims_0"), val = int32(0)];
            bool gather_14_validate_indices_0 = const()[name = string("gather_14_validate_indices_0"), val = bool(false)];
            int32 select_16 = const()[name = string("select_16"), val = int32(1)];
            int32 gather_14_axis_0 = const()[name = string("gather_14_axis_0"), val = int32(0)];
            int32 gather_14 = gather(axis = gather_14_axis_0, batch_dims = gather_14_batch_dims_0, indices = select_16, validate_indices = gather_14_validate_indices_0, x = var_334_shape)[name = string("gather_14")];
            int32 concat_18_axis_0 = const()[name = string("concat_18_axis_0"), val = int32(0)];
            bool concat_18_interleave_0 = const()[name = string("concat_18_interleave_0"), val = bool(false)];
            tensor<int32, [3]> concat_18 = concat(axis = concat_18_axis_0, interleave = concat_18_interleave_0, values = (gather_13, gather_14, var_16))[name = string("concat_18")];
            tensor<fp32, [?, ?, 384]> input_73 = reshape(shape = concat_18, x = var_332)[name = string("input_73")];
            tensor<fp32, [?, ?, 384]> input_75 = linear(bias = model_encoder_layer_3_attention_output_dense_bias, weight = model_encoder_layer_3_attention_output_dense_weight_quantized, x = input_73)[name = string("linear_21")];
            tensor<fp32, [?, ?, 384]> input_77 = add(x = input_75, y = hidden_states_19)[name = string("input_77")];
            tensor<int32, [1]> input_79_axes_0 = const()[name = string("input_79_axes_0"), val = tensor<int32, [1]>([-1])];
            tensor<fp32, [?, ?, 384]> input_79 = layer_norm(axes = input_79_axes_0, beta = model_encoder_layer_3_attention_output_LayerNorm_bias, epsilon = var_15, gamma = model_encoder_layer_3_attention_output_LayerNorm_weight, x = input_77)[name = string("input_79")];
            tensor<fp32, [?, ?, 1536]> input_81 = linear(bias = model_encoder_layer_3_intermediate_dense_bias, weight = model_encoder_layer_3_intermediate_dense_weight_quantized, x = input_79)[name = string("linear_22")];
            string input_83_mode_0 = const()[name = string("input_83_mode_0"), val = string("EXACT")];
            tensor<fp32, [?, ?, 1536]> input_83 = gelu(mode = input_83_mode_0, x = input_81)[name = string("input_83")];
            tensor<fp32, [?, ?, 384]> input_85 = linear(bias = model_encoder_layer_3_output_dense_bias, weight = model_encoder_layer_3_output_dense_weight_quantized, x = input_83)[name = string("linear_23")];
            tensor<fp32, [?, ?, 384]> input_87 = add(x = input_85, y = input_79)[name = string("input_87")];
            tensor<int32, [1]> hidden_states_25_axes_0 = const()[name = string("hidden_states_25_axes_0"), val = tensor<int32, [1]>([-1])];
            tensor<fp32, [?, ?, 384]> hidden_states_25 = layer_norm(axes = hidden_states_25_axes_0, beta = model_encoder_layer_3_output_LayerNorm_bias, epsilon = var_15, gamma = model_encoder_layer_3_output_LayerNorm_weight, x = input_87)[name = string("hidden_states_25")];
            tensor<int32, [3]> var_373_shape = shape(x = hidden_states_25)[name = string("op_373_shape")];
            int32 gather_15_batch_dims_0 = const()[name = string("gather_15_batch_dims_0"), val = int32(0)];
            bool gather_15_validate_indices_0 = const()[name = string("gather_15_validate_indices_0"), val = bool(false)];
            int32 select_17 = const()[name = string("select_17"), val = int32(0)];
            int32 gather_15_axis_0 = const()[name = string("gather_15_axis_0"), val = int32(0)];
            int32 gather_15 = gather(axis = gather_15_axis_0, batch_dims = gather_15_batch_dims_0, indices = select_17, validate_indices = gather_15_validate_indices_0, x = var_373_shape)[name = string("gather_15")];
            tensor<fp32, [?, ?, 384]> query_layer_17 = linear(bias = model_encoder_layer_4_attention_self_query_bias, weight = model_encoder_layer_4_attention_self_query_weight_quantized, x = hidden_states_25)[name = string("linear_24")];
            int32 concat_19_axis_0 = const()[name = string("concat_19_axis_0"), val = int32(0)];
            bool concat_19_interleave_0 = const()[name = string("concat_19_interleave_0"), val = bool(false)];
            tensor<int32, [4]> concat_19 = concat(axis = concat_19_axis_0, interleave = concat_19_interleave_0, values = (gather_15, var_13, var_7, var_6))[name = string("concat_19")];
            tensor<fp32, [?, ?, 12, 32]> var_378 = reshape(shape = concat_19, x = query_layer_17)[name = string("op_378")];
            tensor<fp32, [?, ?, 384]> key_layer_17 = linear(bias = model_encoder_layer_4_attention_self_key_bias, weight = model_encoder_layer_4_attention_self_key_weight_quantized, x = hidden_states_25)[name = string("linear_25")];
            tensor<fp32, [?, ?, 12, 32]> var_384 = reshape(shape = concat_19, x = key_layer_17)[name = string("op_384")];
            tensor<fp32, [?, ?, 384]> value_layer_17 = linear(bias = model_encoder_layer_4_attention_self_value_bias, weight = model_encoder_layer_4_attention_self_value_weight_quantized, x = hidden_states_25)[name = string("linear_26")];
            tensor<fp32, [?, ?, 12, 32]> var_390 = reshape(shape = concat_19, x = value_layer_17)[name = string("op_390")];
            tensor<int32, [4]> value_layer_19_perm_0 = const()[name = string("value_layer_19_perm_0"), val = tensor<int32, [4]>([0, 2, -3, -1])];
            bool attention_scores_17_transpose_x_0 = const()[name = string("attention_scores_17_transpose_x_0"), val = bool(false)];
            bool attention_scores_17_transpose_y_0 = const()[name = string("attention_scores_17_transpose_y_0"), val = bool(false)];
            tensor<int32, [4]> transpose_56_perm_0 = const()[name = string("transpose_56_perm_0"), val = tensor<int32, [4]>([0, 2, -3, -1])];
            tensor<int32, [4]> transpose_57_perm_0 = const()[name = string("transpose_57_perm_0"), val = tensor<int32, [4]>([0, 2, -1, -3])];
            tensor<fp32, [?, 12, 32, ?]> transpose_57 = transpose(perm = transpose_57_perm_0, x = var_384)[name = string("transpose_102")];
            tensor<fp32, [?, 12, ?, 32]> transpose_56 = transpose(perm = transpose_56_perm_0, x = var_378)[name = string("transpose_103")];
            tensor<fp32, [?, 12, ?, ?]> attention_scores_17 = matmul(transpose_x = attention_scores_17_transpose_x_0, transpose_y = attention_scores_17_transpose_y_0, x = transpose_56, y = transpose_57)[name = string("attention_scores_17")];
            fp32 _inversed_attention_scores_19_y_0 = const()[name = string("_inversed_attention_scores_19_y_0"), val = fp32(0x1.6a09e6p-3)];
            tensor<fp32, [?, 12, ?, ?]> _inversed_attention_scores_19 = mul(x = attention_scores_17, y = _inversed_attention_scores_19_y_0)[name = string("_inversed_attention_scores_19")];
            tensor<fp32, [?, 12, ?, ?]> input_89 = add(x = _inversed_attention_scores_19, y = attention_mask_1)[name = string("input_89")];
            tensor<fp32, [?, 12, ?, ?]> input_91 = softmax(axis = var_13, x = input_89)[name = string("input_91")];
            bool context_layer_17_transpose_x_0 = const()[name = string("context_layer_17_transpose_x_0"), val = bool(false)];
            bool context_layer_17_transpose_y_0 = const()[name = string("context_layer_17_transpose_y_0"), val = bool(false)];
            tensor<fp32, [?, 12, ?, 32]> value_layer_19 = transpose(perm = value_layer_19_perm_0, x = var_390)[name = string("transpose_101")];
            tensor<fp32, [?, 12, ?, 32]> context_layer_17 = matmul(transpose_x = context_layer_17_transpose_x_0, transpose_y = context_layer_17_transpose_y_0, x = input_91, y = value_layer_19)[name = string("context_layer_17")];
            tensor<int32, [4]> var_400 = const()[name = string("op_400"), val = tensor<int32, [4]>([0, 2, 1, 3])];
            tensor<fp32, [?, ?, 12, 32]> var_401 = transpose(perm = var_400, x = context_layer_17)[name = string("transpose_100")];
            tensor<int32, [4]> var_403_shape = shape(x = var_401)[name = string("op_403_shape")];
            int32 gather_16_batch_dims_0 = const()[name = string("gather_16_batch_dims_0"), val = int32(0)];
            bool gather_16_validate_indices_0 = const()[name = string("gather_16_validate_indices_0"), val = bool(false)];
            int32 select_18 = const()[name = string("select_18"), val = int32(0)];
            int32 gather_16_axis_0 = const()[name = string("gather_16_axis_0"), val = int32(0)];
            int32 gather_16 = gather(axis = gather_16_axis_0, batch_dims = gather_16_batch_dims_0, indices = select_18, validate_indices = gather_16_validate_indices_0, x = var_403_shape)[name = string("gather_16")];
            int32 gather_17_batch_dims_0 = const()[name = string("gather_17_batch_dims_0"), val = int32(0)];
            bool gather_17_validate_indices_0 = const()[name = string("gather_17_validate_indices_0"), val = bool(false)];
            int32 select_19 = const()[name = string("select_19"), val = int32(1)];
            int32 gather_17_axis_0 = const()[name = string("gather_17_axis_0"), val = int32(0)];
            int32 gather_17 = gather(axis = gather_17_axis_0, batch_dims = gather_17_batch_dims_0, indices = select_19, validate_indices = gather_17_validate_indices_0, x = var_403_shape)[name = string("gather_17")];
            int32 concat_22_axis_0 = const()[name = string("concat_22_axis_0"), val = int32(0)];
            bool concat_22_interleave_0 = const()[name = string("concat_22_interleave_0"), val = bool(false)];
            tensor<int32, [3]> concat_22 = concat(axis = concat_22_axis_0, interleave = concat_22_interleave_0, values = (gather_16, gather_17, var_16))[name = string("concat_22")];
            tensor<fp32, [?, ?, 384]> input_93 = reshape(shape = concat_22, x = var_401)[name = string("input_93")];
            tensor<fp32, [?, ?, 384]> input_95 = linear(bias = model_encoder_layer_4_attention_output_dense_bias, weight = model_encoder_layer_4_attention_output_dense_weight_quantized, x = input_93)[name = string("linear_27")];
            tensor<fp32, [?, ?, 384]> input_97 = add(x = input_95, y = hidden_states_25)[name = string("input_97")];
            tensor<int32, [1]> input_99_axes_0 = const()[name = string("input_99_axes_0"), val = tensor<int32, [1]>([-1])];
            tensor<fp32, [?, ?, 384]> input_99 = layer_norm(axes = input_99_axes_0, beta = model_encoder_layer_4_attention_output_LayerNorm_bias, epsilon = var_15, gamma = model_encoder_layer_4_attention_output_LayerNorm_weight, x = input_97)[name = string("input_99")];
            tensor<fp32, [?, ?, 1536]> input_101 = linear(bias = model_encoder_layer_4_intermediate_dense_bias, weight = model_encoder_layer_4_intermediate_dense_weight_quantized, x = input_99)[name = string("linear_28")];
            string input_103_mode_0 = const()[name = string("input_103_mode_0"), val = string("EXACT")];
            tensor<fp32, [?, ?, 1536]> input_103 = gelu(mode = input_103_mode_0, x = input_101)[name = string("input_103")];
            tensor<fp32, [?, ?, 384]> input_105 = linear(bias = model_encoder_layer_4_output_dense_bias, weight = model_encoder_layer_4_output_dense_weight_quantized, x = input_103)[name = string("linear_29")];
            tensor<fp32, [?, ?, 384]> input_107 = add(x = input_105, y = input_99)[name = string("input_107")];
            tensor<int32, [1]> hidden_states_31_axes_0 = const()[name = string("hidden_states_31_axes_0"), val = tensor<int32, [1]>([-1])];
            tensor<fp32, [?, ?, 384]> hidden_states_31 = layer_norm(axes = hidden_states_31_axes_0, beta = model_encoder_layer_4_output_LayerNorm_bias, epsilon = var_15, gamma = model_encoder_layer_4_output_LayerNorm_weight, x = input_107)[name = string("hidden_states_31")];
            tensor<int32, [3]> var_442_shape = shape(x = hidden_states_31)[name = string("op_442_shape")];
            int32 gather_18_batch_dims_0 = const()[name = string("gather_18_batch_dims_0"), val = int32(0)];
            bool gather_18_validate_indices_0 = const()[name = string("gather_18_validate_indices_0"), val = bool(false)];
            int32 select_20 = const()[name = string("select_20"), val = int32(0)];
            int32 gather_18_axis_0 = const()[name = string("gather_18_axis_0"), val = int32(0)];
            int32 gather_18 = gather(axis = gather_18_axis_0, batch_dims = gather_18_batch_dims_0, indices = select_20, validate_indices = gather_18_validate_indices_0, x = var_442_shape)[name = string("gather_18")];
            tensor<fp32, [?, ?, 384]> query_layer_21 = linear(bias = model_encoder_layer_5_attention_self_query_bias, weight = model_encoder_layer_5_attention_self_query_weight_quantized, x = hidden_states_31)[name = string("linear_30")];
            int32 concat_23_axis_0 = const()[name = string("concat_23_axis_0"), val = int32(0)];
            bool concat_23_interleave_0 = const()[name = string("concat_23_interleave_0"), val = bool(false)];
            tensor<int32, [4]> concat_23 = concat(axis = concat_23_axis_0, interleave = concat_23_interleave_0, values = (gather_18, var_13, var_7, var_6))[name = string("concat_23")];
            tensor<fp32, [?, ?, 12, 32]> var_447 = reshape(shape = concat_23, x = query_layer_21)[name = string("op_447")];
            tensor<fp32, [?, ?, 384]> key_layer_21 = linear(bias = model_encoder_layer_5_attention_self_key_bias, weight = model_encoder_layer_5_attention_self_key_weight_quantized, x = hidden_states_31)[name = string("linear_31")];
            tensor<fp32, [?, ?, 12, 32]> var_453 = reshape(shape = concat_23, x = key_layer_21)[name = string("op_453")];
            tensor<fp32, [?, ?, 384]> value_layer_21 = linear(bias = model_encoder_layer_5_attention_self_value_bias, weight = model_encoder_layer_5_attention_self_value_weight_quantized, x = hidden_states_31)[name = string("linear_32")];
            tensor<fp32, [?, ?, 12, 32]> var_459 = reshape(shape = concat_23, x = value_layer_21)[name = string("op_459")];
            tensor<int32, [4]> value_layer_23_perm_0 = const()[name = string("value_layer_23_perm_0"), val = tensor<int32, [4]>([0, 2, -3, -1])];
            bool attention_scores_21_transpose_x_0 = const()[name = string("attention_scores_21_transpose_x_0"), val = bool(false)];
            bool attention_scores_21_transpose_y_0 = const()[name = string("attention_scores_21_transpose_y_0"), val = bool(false)];
            tensor<int32, [4]> transpose_58_perm_0 = const()[name = string("transpose_58_perm_0"), val = tensor<int32, [4]>([0, 2, -3, -1])];
            tensor<int32, [4]> transpose_59_perm_0 = const()[name = string("transpose_59_perm_0"), val = tensor<int32, [4]>([0, 2, -1, -3])];
            tensor<fp32, [?, 12, 32, ?]> transpose_59 = transpose(perm = transpose_59_perm_0, x = var_453)[name = string("transpose_98")];
            tensor<fp32, [?, 12, ?, 32]> transpose_58 = transpose(perm = transpose_58_perm_0, x = var_447)[name = string("transpose_99")];
            tensor<fp32, [?, 12, ?, ?]> attention_scores_21 = matmul(transpose_x = attention_scores_21_transpose_x_0, transpose_y = attention_scores_21_transpose_y_0, x = transpose_58, y = transpose_59)[name = string("attention_scores_21")];
            fp32 _inversed_attention_scores_23_y_0 = const()[name = string("_inversed_attention_scores_23_y_0"), val = fp32(0x1.6a09e6p-3)];
            tensor<fp32, [?, 12, ?, ?]> _inversed_attention_scores_23 = mul(x = attention_scores_21, y = _inversed_attention_scores_23_y_0)[name = string("_inversed_attention_scores_23")];
            tensor<fp32, [?, 12, ?, ?]> input_109 = add(x = _inversed_attention_scores_23, y = attention_mask_1)[name = string("input_109")];
            tensor<fp32, [?, 12, ?, ?]> input_111 = softmax(axis = var_13, x = input_109)[name = string("input_111")];
            bool context_layer_21_transpose_x_0 = const()[name = string("context_layer_21_transpose_x_0"), val = bool(false)];
            bool context_layer_21_transpose_y_0 = const()[name = string("context_layer_21_transpose_y_0"), val = bool(false)];
            tensor<fp32, [?, 12, ?, 32]> value_layer_23 = transpose(perm = value_layer_23_perm_0, x = var_459)[name = string("transpose_97")];
            tensor<fp32, [?, 12, ?, 32]> context_layer_21 = matmul(transpose_x = context_layer_21_transpose_x_0, transpose_y = context_layer_21_transpose_y_0, x = input_111, y = value_layer_23)[name = string("context_layer_21")];
            tensor<int32, [4]> var_469 = const()[name = string("op_469"), val = tensor<int32, [4]>([0, 2, 1, 3])];
            tensor<fp32, [?, ?, 12, 32]> var_470 = transpose(perm = var_469, x = context_layer_21)[name = string("transpose_96")];
            tensor<int32, [4]> var_472_shape = shape(x = var_470)[name = string("op_472_shape")];
            int32 gather_19_batch_dims_0 = const()[name = string("gather_19_batch_dims_0"), val = int32(0)];
            bool gather_19_validate_indices_0 = const()[name = string("gather_19_validate_indices_0"), val = bool(false)];
            int32 select_21 = const()[name = string("select_21"), val = int32(0)];
            int32 gather_19_axis_0 = const()[name = string("gather_19_axis_0"), val = int32(0)];
            int32 gather_19 = gather(axis = gather_19_axis_0, batch_dims = gather_19_batch_dims_0, indices = select_21, validate_indices = gather_19_validate_indices_0, x = var_472_shape)[name = string("gather_19")];
            int32 gather_20_batch_dims_0 = const()[name = string("gather_20_batch_dims_0"), val = int32(0)];
            bool gather_20_validate_indices_0 = const()[name = string("gather_20_validate_indices_0"), val = bool(false)];
            int32 select_22 = const()[name = string("select_22"), val = int32(1)];
            int32 gather_20_axis_0 = const()[name = string("gather_20_axis_0"), val = int32(0)];
            int32 gather_20 = gather(axis = gather_20_axis_0, batch_dims = gather_20_batch_dims_0, indices = select_22, validate_indices = gather_20_validate_indices_0, x = var_472_shape)[name = string("gather_20")];
            int32 concat_26_axis_0 = const()[name = string("concat_26_axis_0"), val = int32(0)];
            bool concat_26_interleave_0 = const()[name = string("concat_26_interleave_0"), val = bool(false)];
            tensor<int32, [3]> concat_26 = concat(axis = concat_26_axis_0, interleave = concat_26_interleave_0, values = (gather_19, gather_20, var_16))[name = string("concat_26")];
            tensor<fp32, [?, ?, 384]> input_113 = reshape(shape = concat_26, x = var_470)[name = string("input_113")];
            tensor<fp32, [?, ?, 384]> input_115 = linear(bias = model_encoder_layer_5_attention_output_dense_bias, weight = model_encoder_layer_5_attention_output_dense_weight_quantized, x = input_113)[name = string("linear_33")];
            tensor<fp32, [?, ?, 384]> input_117 = add(x = input_115, y = hidden_states_31)[name = string("input_117")];
            tensor<int32, [1]> input_119_axes_0 = const()[name = string("input_119_axes_0"), val = tensor<int32, [1]>([-1])];
            tensor<fp32, [?, ?, 384]> input_119 = layer_norm(axes = input_119_axes_0, beta = model_encoder_layer_5_attention_output_LayerNorm_bias, epsilon = var_15, gamma = model_encoder_layer_5_attention_output_LayerNorm_weight, x = input_117)[name = string("input_119")];
            tensor<fp32, [?, ?, 1536]> input_121 = linear(bias = model_encoder_layer_5_intermediate_dense_bias, weight = model_encoder_layer_5_intermediate_dense_weight_quantized, x = input_119)[name = string("linear_34")];
            string input_123_mode_0 = const()[name = string("input_123_mode_0"), val = string("EXACT")];
            tensor<fp32, [?, ?, 1536]> input_123 = gelu(mode = input_123_mode_0, x = input_121)[name = string("input_123")];
            tensor<fp32, [?, ?, 384]> input_125 = linear(bias = model_encoder_layer_5_output_dense_bias, weight = model_encoder_layer_5_output_dense_weight_quantized, x = input_123)[name = string("linear_35")];
            tensor<fp32, [?, ?, 384]> input_127 = add(x = input_125, y = input_119)[name = string("input_127")];
            tensor<int32, [1]> hidden_states_37_axes_0 = const()[name = string("hidden_states_37_axes_0"), val = tensor<int32, [1]>([-1])];
            tensor<fp32, [?, ?, 384]> hidden_states_37 = layer_norm(axes = hidden_states_37_axes_0, beta = model_encoder_layer_5_output_LayerNorm_bias, epsilon = var_15, gamma = model_encoder_layer_5_output_LayerNorm_weight, x = input_127)[name = string("hidden_states_37")];
            tensor<int32, [3]> var_511_shape = shape(x = hidden_states_37)[name = string("op_511_shape")];
            int32 gather_21_batch_dims_0 = const()[name = string("gather_21_batch_dims_0"), val = int32(0)];
            bool gather_21_validate_indices_0 = const()[name = string("gather_21_validate_indices_0"), val = bool(false)];
            int32 select_23 = const()[name = string("select_23"), val = int32(0)];
            int32 gather_21_axis_0 = const()[name = string("gather_21_axis_0"), val = int32(0)];
            int32 gather_21 = gather(axis = gather_21_axis_0, batch_dims = gather_21_batch_dims_0, indices = select_23, validate_indices = gather_21_validate_indices_0, x = var_511_shape)[name = string("gather_21")];
            tensor<fp32, [?, ?, 384]> query_layer_25 = linear(bias = model_encoder_layer_6_attention_self_query_bias, weight = model_encoder_layer_6_attention_self_query_weight_quantized, x = hidden_states_37)[name = string("linear_36")];
            int32 concat_27_axis_0 = const()[name = string("concat_27_axis_0"), val = int32(0)];
            bool concat_27_interleave_0 = const()[name = string("concat_27_interleave_0"), val = bool(false)];
            tensor<int32, [4]> concat_27 = concat(axis = concat_27_axis_0, interleave = concat_27_interleave_0, values = (gather_21, var_13, var_7, var_6))[name = string("concat_27")];
            tensor<fp32, [?, ?, 12, 32]> var_516 = reshape(shape = concat_27, x = query_layer_25)[name = string("op_516")];
            tensor<fp32, [?, ?, 384]> key_layer_25 = linear(bias = model_encoder_layer_6_attention_self_key_bias, weight = model_encoder_layer_6_attention_self_key_weight_quantized, x = hidden_states_37)[name = string("linear_37")];
            tensor<fp32, [?, ?, 12, 32]> var_522 = reshape(shape = concat_27, x = key_layer_25)[name = string("op_522")];
            tensor<fp32, [?, ?, 384]> value_layer_25 = linear(bias = model_encoder_layer_6_attention_self_value_bias, weight = model_encoder_layer_6_attention_self_value_weight_quantized, x = hidden_states_37)[name = string("linear_38")];
            tensor<fp32, [?, ?, 12, 32]> var_528 = reshape(shape = concat_27, x = value_layer_25)[name = string("op_528")];
            tensor<int32, [4]> value_layer_27_perm_0 = const()[name = string("value_layer_27_perm_0"), val = tensor<int32, [4]>([0, 2, -3, -1])];
            bool attention_scores_25_transpose_x_0 = const()[name = string("attention_scores_25_transpose_x_0"), val = bool(false)];
            bool attention_scores_25_transpose_y_0 = const()[name = string("attention_scores_25_transpose_y_0"), val = bool(false)];
            tensor<int32, [4]> transpose_60_perm_0 = const()[name = string("transpose_60_perm_0"), val = tensor<int32, [4]>([0, 2, -3, -1])];
            tensor<int32, [4]> transpose_61_perm_0 = const()[name = string("transpose_61_perm_0"), val = tensor<int32, [4]>([0, 2, -1, -3])];
            tensor<fp32, [?, 12, 32, ?]> transpose_61 = transpose(perm = transpose_61_perm_0, x = var_522)[name = string("transpose_94")];
            tensor<fp32, [?, 12, ?, 32]> transpose_60 = transpose(perm = transpose_60_perm_0, x = var_516)[name = string("transpose_95")];
            tensor<fp32, [?, 12, ?, ?]> attention_scores_25 = matmul(transpose_x = attention_scores_25_transpose_x_0, transpose_y = attention_scores_25_transpose_y_0, x = transpose_60, y = transpose_61)[name = string("attention_scores_25")];
            fp32 _inversed_attention_scores_27_y_0 = const()[name = string("_inversed_attention_scores_27_y_0"), val = fp32(0x1.6a09e6p-3)];
            tensor<fp32, [?, 12, ?, ?]> _inversed_attention_scores_27 = mul(x = attention_scores_25, y = _inversed_attention_scores_27_y_0)[name = string("_inversed_attention_scores_27")];
            tensor<fp32, [?, 12, ?, ?]> input_129 = add(x = _inversed_attention_scores_27, y = attention_mask_1)[name = string("input_129")];
            tensor<fp32, [?, 12, ?, ?]> input_131 = softmax(axis = var_13, x = input_129)[name = string("input_131")];
            bool context_layer_25_transpose_x_0 = const()[name = string("context_layer_25_transpose_x_0"), val = bool(false)];
            bool context_layer_25_transpose_y_0 = const()[name = string("context_layer_25_transpose_y_0"), val = bool(false)];
            tensor<fp32, [?, 12, ?, 32]> value_layer_27 = transpose(perm = value_layer_27_perm_0, x = var_528)[name = string("transpose_93")];
            tensor<fp32, [?, 12, ?, 32]> context_layer_25 = matmul(transpose_x = context_layer_25_transpose_x_0, transpose_y = context_layer_25_transpose_y_0, x = input_131, y = value_layer_27)[name = string("context_layer_25")];
            tensor<int32, [4]> var_538 = const()[name = string("op_538"), val = tensor<int32, [4]>([0, 2, 1, 3])];
            tensor<fp32, [?, ?, 12, 32]> var_539 = transpose(perm = var_538, x = context_layer_25)[name = string("transpose_92")];
            tensor<int32, [4]> var_541_shape = shape(x = var_539)[name = string("op_541_shape")];
            int32 gather_22_batch_dims_0 = const()[name = string("gather_22_batch_dims_0"), val = int32(0)];
            bool gather_22_validate_indices_0 = const()[name = string("gather_22_validate_indices_0"), val = bool(false)];
            int32 select_24 = const()[name = string("select_24"), val = int32(0)];
            int32 gather_22_axis_0 = const()[name = string("gather_22_axis_0"), val = int32(0)];
            int32 gather_22 = gather(axis = gather_22_axis_0, batch_dims = gather_22_batch_dims_0, indices = select_24, validate_indices = gather_22_validate_indices_0, x = var_541_shape)[name = string("gather_22")];
            int32 gather_23_batch_dims_0 = const()[name = string("gather_23_batch_dims_0"), val = int32(0)];
            bool gather_23_validate_indices_0 = const()[name = string("gather_23_validate_indices_0"), val = bool(false)];
            int32 select_25 = const()[name = string("select_25"), val = int32(1)];
            int32 gather_23_axis_0 = const()[name = string("gather_23_axis_0"), val = int32(0)];
            int32 gather_23 = gather(axis = gather_23_axis_0, batch_dims = gather_23_batch_dims_0, indices = select_25, validate_indices = gather_23_validate_indices_0, x = var_541_shape)[name = string("gather_23")];
            int32 concat_30_axis_0 = const()[name = string("concat_30_axis_0"), val = int32(0)];
            bool concat_30_interleave_0 = const()[name = string("concat_30_interleave_0"), val = bool(false)];
            tensor<int32, [3]> concat_30 = concat(axis = concat_30_axis_0, interleave = concat_30_interleave_0, values = (gather_22, gather_23, var_16))[name = string("concat_30")];
            tensor<fp32, [?, ?, 384]> input_133 = reshape(shape = concat_30, x = var_539)[name = string("input_133")];
            tensor<fp32, [?, ?, 384]> input_135 = linear(bias = model_encoder_layer_6_attention_output_dense_bias, weight = model_encoder_layer_6_attention_output_dense_weight_quantized, x = input_133)[name = string("linear_39")];
            tensor<fp32, [?, ?, 384]> input_137 = add(x = input_135, y = hidden_states_37)[name = string("input_137")];
            tensor<int32, [1]> input_139_axes_0 = const()[name = string("input_139_axes_0"), val = tensor<int32, [1]>([-1])];
            tensor<fp32, [?, ?, 384]> input_139 = layer_norm(axes = input_139_axes_0, beta = model_encoder_layer_6_attention_output_LayerNorm_bias, epsilon = var_15, gamma = model_encoder_layer_6_attention_output_LayerNorm_weight, x = input_137)[name = string("input_139")];
            tensor<fp32, [?, ?, 1536]> input_141 = linear(bias = model_encoder_layer_6_intermediate_dense_bias, weight = model_encoder_layer_6_intermediate_dense_weight_quantized, x = input_139)[name = string("linear_40")];
            string input_143_mode_0 = const()[name = string("input_143_mode_0"), val = string("EXACT")];
            tensor<fp32, [?, ?, 1536]> input_143 = gelu(mode = input_143_mode_0, x = input_141)[name = string("input_143")];
            tensor<fp32, [?, ?, 384]> input_145 = linear(bias = model_encoder_layer_6_output_dense_bias, weight = model_encoder_layer_6_output_dense_weight_quantized, x = input_143)[name = string("linear_41")];
            tensor<fp32, [?, ?, 384]> input_147 = add(x = input_145, y = input_139)[name = string("input_147")];
            tensor<int32, [1]> hidden_states_43_axes_0 = const()[name = string("hidden_states_43_axes_0"), val = tensor<int32, [1]>([-1])];
            tensor<fp32, [?, ?, 384]> hidden_states_43 = layer_norm(axes = hidden_states_43_axes_0, beta = model_encoder_layer_6_output_LayerNorm_bias, epsilon = var_15, gamma = model_encoder_layer_6_output_LayerNorm_weight, x = input_147)[name = string("hidden_states_43")];
            tensor<int32, [3]> var_580_shape = shape(x = hidden_states_43)[name = string("op_580_shape")];
            int32 gather_24_batch_dims_0 = const()[name = string("gather_24_batch_dims_0"), val = int32(0)];
            bool gather_24_validate_indices_0 = const()[name = string("gather_24_validate_indices_0"), val = bool(false)];
            int32 select_26 = const()[name = string("select_26"), val = int32(0)];
            int32 gather_24_axis_0 = const()[name = string("gather_24_axis_0"), val = int32(0)];
            int32 gather_24 = gather(axis = gather_24_axis_0, batch_dims = gather_24_batch_dims_0, indices = select_26, validate_indices = gather_24_validate_indices_0, x = var_580_shape)[name = string("gather_24")];
            tensor<fp32, [?, ?, 384]> query_layer_29 = linear(bias = model_encoder_layer_7_attention_self_query_bias, weight = model_encoder_layer_7_attention_self_query_weight_quantized, x = hidden_states_43)[name = string("linear_42")];
            int32 concat_31_axis_0 = const()[name = string("concat_31_axis_0"), val = int32(0)];
            bool concat_31_interleave_0 = const()[name = string("concat_31_interleave_0"), val = bool(false)];
            tensor<int32, [4]> concat_31 = concat(axis = concat_31_axis_0, interleave = concat_31_interleave_0, values = (gather_24, var_13, var_7, var_6))[name = string("concat_31")];
            tensor<fp32, [?, ?, 12, 32]> var_585 = reshape(shape = concat_31, x = query_layer_29)[name = string("op_585")];
            tensor<fp32, [?, ?, 384]> key_layer_29 = linear(bias = model_encoder_layer_7_attention_self_key_bias, weight = model_encoder_layer_7_attention_self_key_weight_quantized, x = hidden_states_43)[name = string("linear_43")];
            tensor<fp32, [?, ?, 12, 32]> var_591 = reshape(shape = concat_31, x = key_layer_29)[name = string("op_591")];
            tensor<fp32, [?, ?, 384]> value_layer_29 = linear(bias = model_encoder_layer_7_attention_self_value_bias, weight = model_encoder_layer_7_attention_self_value_weight_quantized, x = hidden_states_43)[name = string("linear_44")];
            tensor<fp32, [?, ?, 12, 32]> var_597 = reshape(shape = concat_31, x = value_layer_29)[name = string("op_597")];
            tensor<int32, [4]> value_layer_31_perm_0 = const()[name = string("value_layer_31_perm_0"), val = tensor<int32, [4]>([0, 2, -3, -1])];
            bool attention_scores_29_transpose_x_0 = const()[name = string("attention_scores_29_transpose_x_0"), val = bool(false)];
            bool attention_scores_29_transpose_y_0 = const()[name = string("attention_scores_29_transpose_y_0"), val = bool(false)];
            tensor<int32, [4]> transpose_62_perm_0 = const()[name = string("transpose_62_perm_0"), val = tensor<int32, [4]>([0, 2, -3, -1])];
            tensor<int32, [4]> transpose_63_perm_0 = const()[name = string("transpose_63_perm_0"), val = tensor<int32, [4]>([0, 2, -1, -3])];
            tensor<fp32, [?, 12, 32, ?]> transpose_63 = transpose(perm = transpose_63_perm_0, x = var_591)[name = string("transpose_90")];
            tensor<fp32, [?, 12, ?, 32]> transpose_62 = transpose(perm = transpose_62_perm_0, x = var_585)[name = string("transpose_91")];
            tensor<fp32, [?, 12, ?, ?]> attention_scores_29 = matmul(transpose_x = attention_scores_29_transpose_x_0, transpose_y = attention_scores_29_transpose_y_0, x = transpose_62, y = transpose_63)[name = string("attention_scores_29")];
            fp32 _inversed_attention_scores_31_y_0 = const()[name = string("_inversed_attention_scores_31_y_0"), val = fp32(0x1.6a09e6p-3)];
            tensor<fp32, [?, 12, ?, ?]> _inversed_attention_scores_31 = mul(x = attention_scores_29, y = _inversed_attention_scores_31_y_0)[name = string("_inversed_attention_scores_31")];
            tensor<fp32, [?, 12, ?, ?]> input_149 = add(x = _inversed_attention_scores_31, y = attention_mask_1)[name = string("input_149")];
            tensor<fp32, [?, 12, ?, ?]> input_151 = softmax(axis = var_13, x = input_149)[name = string("input_151")];
            bool context_layer_29_transpose_x_0 = const()[name = string("context_layer_29_transpose_x_0"), val = bool(false)];
            bool context_layer_29_transpose_y_0 = const()[name = string("context_layer_29_transpose_y_0"), val = bool(false)];
            tensor<fp32, [?, 12, ?, 32]> value_layer_31 = transpose(perm = value_layer_31_perm_0, x = var_597)[name = string("transpose_89")];
            tensor<fp32, [?, 12, ?, 32]> context_layer_29 = matmul(transpose_x = context_layer_29_transpose_x_0, transpose_y = context_layer_29_transpose_y_0, x = input_151, y = value_layer_31)[name = string("context_layer_29")];
            tensor<int32, [4]> var_607 = const()[name = string("op_607"), val = tensor<int32, [4]>([0, 2, 1, 3])];
            tensor<fp32, [?, ?, 12, 32]> var_608 = transpose(perm = var_607, x = context_layer_29)[name = string("transpose_88")];
            tensor<int32, [4]> var_610_shape = shape(x = var_608)[name = string("op_610_shape")];
            int32 gather_25_batch_dims_0 = const()[name = string("gather_25_batch_dims_0"), val = int32(0)];
            bool gather_25_validate_indices_0 = const()[name = string("gather_25_validate_indices_0"), val = bool(false)];
            int32 select_27 = const()[name = string("select_27"), val = int32(0)];
            int32 gather_25_axis_0 = const()[name = string("gather_25_axis_0"), val = int32(0)];
            int32 gather_25 = gather(axis = gather_25_axis_0, batch_dims = gather_25_batch_dims_0, indices = select_27, validate_indices = gather_25_validate_indices_0, x = var_610_shape)[name = string("gather_25")];
            int32 gather_26_batch_dims_0 = const()[name = string("gather_26_batch_dims_0"), val = int32(0)];
            bool gather_26_validate_indices_0 = const()[name = string("gather_26_validate_indices_0"), val = bool(false)];
            int32 select_28 = const()[name = string("select_28"), val = int32(1)];
            int32 gather_26_axis_0 = const()[name = string("gather_26_axis_0"), val = int32(0)];
            int32 gather_26 = gather(axis = gather_26_axis_0, batch_dims = gather_26_batch_dims_0, indices = select_28, validate_indices = gather_26_validate_indices_0, x = var_610_shape)[name = string("gather_26")];
            int32 concat_34_axis_0 = const()[name = string("concat_34_axis_0"), val = int32(0)];
            bool concat_34_interleave_0 = const()[name = string("concat_34_interleave_0"), val = bool(false)];
            tensor<int32, [3]> concat_34 = concat(axis = concat_34_axis_0, interleave = concat_34_interleave_0, values = (gather_25, gather_26, var_16))[name = string("concat_34")];
            tensor<fp32, [?, ?, 384]> input_153 = reshape(shape = concat_34, x = var_608)[name = string("input_153")];
            tensor<fp32, [?, ?, 384]> input_155 = linear(bias = model_encoder_layer_7_attention_output_dense_bias, weight = model_encoder_layer_7_attention_output_dense_weight_quantized, x = input_153)[name = string("linear_45")];
            tensor<fp32, [?, ?, 384]> input_157 = add(x = input_155, y = hidden_states_43)[name = string("input_157")];
            tensor<int32, [1]> input_159_axes_0 = const()[name = string("input_159_axes_0"), val = tensor<int32, [1]>([-1])];
            tensor<fp32, [?, ?, 384]> input_159 = layer_norm(axes = input_159_axes_0, beta = model_encoder_layer_7_attention_output_LayerNorm_bias, epsilon = var_15, gamma = model_encoder_layer_7_attention_output_LayerNorm_weight, x = input_157)[name = string("input_159")];
            tensor<fp32, [?, ?, 1536]> input_161 = linear(bias = model_encoder_layer_7_intermediate_dense_bias, weight = model_encoder_layer_7_intermediate_dense_weight_quantized, x = input_159)[name = string("linear_46")];
            string input_163_mode_0 = const()[name = string("input_163_mode_0"), val = string("EXACT")];
            tensor<fp32, [?, ?, 1536]> input_163 = gelu(mode = input_163_mode_0, x = input_161)[name = string("input_163")];
            tensor<fp32, [?, ?, 384]> input_165 = linear(bias = model_encoder_layer_7_output_dense_bias, weight = model_encoder_layer_7_output_dense_weight_quantized, x = input_163)[name = string("linear_47")];
            tensor<fp32, [?, ?, 384]> input_167 = add(x = input_165, y = input_159)[name = string("input_167")];
            tensor<int32, [1]> hidden_states_49_axes_0 = const()[name = string("hidden_states_49_axes_0"), val = tensor<int32, [1]>([-1])];
            tensor<fp32, [?, ?, 384]> hidden_states_49 = layer_norm(axes = hidden_states_49_axes_0, beta = model_encoder_layer_7_output_LayerNorm_bias, epsilon = var_15, gamma = model_encoder_layer_7_output_LayerNorm_weight, x = input_167)[name = string("hidden_states_49")];
            tensor<int32, [3]> var_649_shape = shape(x = hidden_states_49)[name = string("op_649_shape")];
            int32 gather_27_batch_dims_0 = const()[name = string("gather_27_batch_dims_0"), val = int32(0)];
            bool gather_27_validate_indices_0 = const()[name = string("gather_27_validate_indices_0"), val = bool(false)];
            int32 select_29 = const()[name = string("select_29"), val = int32(0)];
            int32 gather_27_axis_0 = const()[name = string("gather_27_axis_0"), val = int32(0)];
            int32 gather_27 = gather(axis = gather_27_axis_0, batch_dims = gather_27_batch_dims_0, indices = select_29, validate_indices = gather_27_validate_indices_0, x = var_649_shape)[name = string("gather_27")];
            tensor<fp32, [?, ?, 384]> query_layer_33 = linear(bias = model_encoder_layer_8_attention_self_query_bias, weight = model_encoder_layer_8_attention_self_query_weight_quantized, x = hidden_states_49)[name = string("linear_48")];
            int32 concat_35_axis_0 = const()[name = string("concat_35_axis_0"), val = int32(0)];
            bool concat_35_interleave_0 = const()[name = string("concat_35_interleave_0"), val = bool(false)];
            tensor<int32, [4]> concat_35 = concat(axis = concat_35_axis_0, interleave = concat_35_interleave_0, values = (gather_27, var_13, var_7, var_6))[name = string("concat_35")];
            tensor<fp32, [?, ?, 12, 32]> var_654 = reshape(shape = concat_35, x = query_layer_33)[name = string("op_654")];
            tensor<fp32, [?, ?, 384]> key_layer_33 = linear(bias = model_encoder_layer_8_attention_self_key_bias, weight = model_encoder_layer_8_attention_self_key_weight_quantized, x = hidden_states_49)[name = string("linear_49")];
            tensor<fp32, [?, ?, 12, 32]> var_660 = reshape(shape = concat_35, x = key_layer_33)[name = string("op_660")];
            tensor<fp32, [?, ?, 384]> value_layer_33 = linear(bias = model_encoder_layer_8_attention_self_value_bias, weight = model_encoder_layer_8_attention_self_value_weight_quantized, x = hidden_states_49)[name = string("linear_50")];
            tensor<fp32, [?, ?, 12, 32]> var_666 = reshape(shape = concat_35, x = value_layer_33)[name = string("op_666")];
            tensor<int32, [4]> value_layer_35_perm_0 = const()[name = string("value_layer_35_perm_0"), val = tensor<int32, [4]>([0, 2, -3, -1])];
            bool attention_scores_33_transpose_x_0 = const()[name = string("attention_scores_33_transpose_x_0"), val = bool(false)];
            bool attention_scores_33_transpose_y_0 = const()[name = string("attention_scores_33_transpose_y_0"), val = bool(false)];
            tensor<int32, [4]> transpose_64_perm_0 = const()[name = string("transpose_64_perm_0"), val = tensor<int32, [4]>([0, 2, -3, -1])];
            tensor<int32, [4]> transpose_65_perm_0 = const()[name = string("transpose_65_perm_0"), val = tensor<int32, [4]>([0, 2, -1, -3])];
            tensor<fp32, [?, 12, 32, ?]> transpose_65 = transpose(perm = transpose_65_perm_0, x = var_660)[name = string("transpose_86")];
            tensor<fp32, [?, 12, ?, 32]> transpose_64 = transpose(perm = transpose_64_perm_0, x = var_654)[name = string("transpose_87")];
            tensor<fp32, [?, 12, ?, ?]> attention_scores_33 = matmul(transpose_x = attention_scores_33_transpose_x_0, transpose_y = attention_scores_33_transpose_y_0, x = transpose_64, y = transpose_65)[name = string("attention_scores_33")];
            fp32 _inversed_attention_scores_35_y_0 = const()[name = string("_inversed_attention_scores_35_y_0"), val = fp32(0x1.6a09e6p-3)];
            tensor<fp32, [?, 12, ?, ?]> _inversed_attention_scores_35 = mul(x = attention_scores_33, y = _inversed_attention_scores_35_y_0)[name = string("_inversed_attention_scores_35")];
            tensor<fp32, [?, 12, ?, ?]> input_169 = add(x = _inversed_attention_scores_35, y = attention_mask_1)[name = string("input_169")];
            tensor<fp32, [?, 12, ?, ?]> input_171 = softmax(axis = var_13, x = input_169)[name = string("input_171")];
            bool context_layer_33_transpose_x_0 = const()[name = string("context_layer_33_transpose_x_0"), val = bool(false)];
            bool context_layer_33_transpose_y_0 = const()[name = string("context_layer_33_transpose_y_0"), val = bool(false)];
            tensor<fp32, [?, 12, ?, 32]> value_layer_35 = transpose(perm = value_layer_35_perm_0, x = var_666)[name = string("transpose_85")];
            tensor<fp32, [?, 12, ?, 32]> context_layer_33 = matmul(transpose_x = context_layer_33_transpose_x_0, transpose_y = context_layer_33_transpose_y_0, x = input_171, y = value_layer_35)[name = string("context_layer_33")];
            tensor<int32, [4]> var_676 = const()[name = string("op_676"), val = tensor<int32, [4]>([0, 2, 1, 3])];
            tensor<fp32, [?, ?, 12, 32]> var_677 = transpose(perm = var_676, x = context_layer_33)[name = string("transpose_84")];
            tensor<int32, [4]> var_679_shape = shape(x = var_677)[name = string("op_679_shape")];
            int32 gather_28_batch_dims_0 = const()[name = string("gather_28_batch_dims_0"), val = int32(0)];
            bool gather_28_validate_indices_0 = const()[name = string("gather_28_validate_indices_0"), val = bool(false)];
            int32 select_30 = const()[name = string("select_30"), val = int32(0)];
            int32 gather_28_axis_0 = const()[name = string("gather_28_axis_0"), val = int32(0)];
            int32 gather_28 = gather(axis = gather_28_axis_0, batch_dims = gather_28_batch_dims_0, indices = select_30, validate_indices = gather_28_validate_indices_0, x = var_679_shape)[name = string("gather_28")];
            int32 gather_29_batch_dims_0 = const()[name = string("gather_29_batch_dims_0"), val = int32(0)];
            bool gather_29_validate_indices_0 = const()[name = string("gather_29_validate_indices_0"), val = bool(false)];
            int32 select_31 = const()[name = string("select_31"), val = int32(1)];
            int32 gather_29_axis_0 = const()[name = string("gather_29_axis_0"), val = int32(0)];
            int32 gather_29 = gather(axis = gather_29_axis_0, batch_dims = gather_29_batch_dims_0, indices = select_31, validate_indices = gather_29_validate_indices_0, x = var_679_shape)[name = string("gather_29")];
            int32 concat_38_axis_0 = const()[name = string("concat_38_axis_0"), val = int32(0)];
            bool concat_38_interleave_0 = const()[name = string("concat_38_interleave_0"), val = bool(false)];
            tensor<int32, [3]> concat_38 = concat(axis = concat_38_axis_0, interleave = concat_38_interleave_0, values = (gather_28, gather_29, var_16))[name = string("concat_38")];
            tensor<fp32, [?, ?, 384]> input_173 = reshape(shape = concat_38, x = var_677)[name = string("input_173")];
            tensor<fp32, [?, ?, 384]> input_175 = linear(bias = model_encoder_layer_8_attention_output_dense_bias, weight = model_encoder_layer_8_attention_output_dense_weight_quantized, x = input_173)[name = string("linear_51")];
            tensor<fp32, [?, ?, 384]> input_177 = add(x = input_175, y = hidden_states_49)[name = string("input_177")];
            tensor<int32, [1]> input_179_axes_0 = const()[name = string("input_179_axes_0"), val = tensor<int32, [1]>([-1])];
            tensor<fp32, [?, ?, 384]> input_179 = layer_norm(axes = input_179_axes_0, beta = model_encoder_layer_8_attention_output_LayerNorm_bias, epsilon = var_15, gamma = model_encoder_layer_8_attention_output_LayerNorm_weight, x = input_177)[name = string("input_179")];
            tensor<fp32, [?, ?, 1536]> input_181 = linear(bias = model_encoder_layer_8_intermediate_dense_bias, weight = model_encoder_layer_8_intermediate_dense_weight_quantized, x = input_179)[name = string("linear_52")];
            string input_183_mode_0 = const()[name = string("input_183_mode_0"), val = string("EXACT")];
            tensor<fp32, [?, ?, 1536]> input_183 = gelu(mode = input_183_mode_0, x = input_181)[name = string("input_183")];
            tensor<fp32, [?, ?, 384]> input_185 = linear(bias = model_encoder_layer_8_output_dense_bias, weight = model_encoder_layer_8_output_dense_weight_quantized, x = input_183)[name = string("linear_53")];
            tensor<fp32, [?, ?, 384]> input_187 = add(x = input_185, y = input_179)[name = string("input_187")];
            tensor<int32, [1]> hidden_states_55_axes_0 = const()[name = string("hidden_states_55_axes_0"), val = tensor<int32, [1]>([-1])];
            tensor<fp32, [?, ?, 384]> hidden_states_55 = layer_norm(axes = hidden_states_55_axes_0, beta = model_encoder_layer_8_output_LayerNorm_bias, epsilon = var_15, gamma = model_encoder_layer_8_output_LayerNorm_weight, x = input_187)[name = string("hidden_states_55")];
            tensor<int32, [3]> var_718_shape = shape(x = hidden_states_55)[name = string("op_718_shape")];
            int32 gather_30_batch_dims_0 = const()[name = string("gather_30_batch_dims_0"), val = int32(0)];
            bool gather_30_validate_indices_0 = const()[name = string("gather_30_validate_indices_0"), val = bool(false)];
            int32 select_32 = const()[name = string("select_32"), val = int32(0)];
            int32 gather_30_axis_0 = const()[name = string("gather_30_axis_0"), val = int32(0)];
            int32 gather_30 = gather(axis = gather_30_axis_0, batch_dims = gather_30_batch_dims_0, indices = select_32, validate_indices = gather_30_validate_indices_0, x = var_718_shape)[name = string("gather_30")];
            tensor<fp32, [?, ?, 384]> query_layer_37 = linear(bias = model_encoder_layer_9_attention_self_query_bias, weight = model_encoder_layer_9_attention_self_query_weight_quantized, x = hidden_states_55)[name = string("linear_54")];
            int32 concat_39_axis_0 = const()[name = string("concat_39_axis_0"), val = int32(0)];
            bool concat_39_interleave_0 = const()[name = string("concat_39_interleave_0"), val = bool(false)];
            tensor<int32, [4]> concat_39 = concat(axis = concat_39_axis_0, interleave = concat_39_interleave_0, values = (gather_30, var_13, var_7, var_6))[name = string("concat_39")];
            tensor<fp32, [?, ?, 12, 32]> var_723 = reshape(shape = concat_39, x = query_layer_37)[name = string("op_723")];
            tensor<fp32, [?, ?, 384]> key_layer_37 = linear(bias = model_encoder_layer_9_attention_self_key_bias, weight = model_encoder_layer_9_attention_self_key_weight_quantized, x = hidden_states_55)[name = string("linear_55")];
            tensor<fp32, [?, ?, 12, 32]> var_729 = reshape(shape = concat_39, x = key_layer_37)[name = string("op_729")];
            tensor<fp32, [?, ?, 384]> value_layer_37 = linear(bias = model_encoder_layer_9_attention_self_value_bias, weight = model_encoder_layer_9_attention_self_value_weight_quantized, x = hidden_states_55)[name = string("linear_56")];
            tensor<fp32, [?, ?, 12, 32]> var_735 = reshape(shape = concat_39, x = value_layer_37)[name = string("op_735")];
            tensor<int32, [4]> value_layer_39_perm_0 = const()[name = string("value_layer_39_perm_0"), val = tensor<int32, [4]>([0, 2, -3, -1])];
            bool attention_scores_37_transpose_x_0 = const()[name = string("attention_scores_37_transpose_x_0"), val = bool(false)];
            bool attention_scores_37_transpose_y_0 = const()[name = string("attention_scores_37_transpose_y_0"), val = bool(false)];
            tensor<int32, [4]> transpose_66_perm_0 = const()[name = string("transpose_66_perm_0"), val = tensor<int32, [4]>([0, 2, -3, -1])];
            tensor<int32, [4]> transpose_67_perm_0 = const()[name = string("transpose_67_perm_0"), val = tensor<int32, [4]>([0, 2, -1, -3])];
            tensor<fp32, [?, 12, 32, ?]> transpose_67 = transpose(perm = transpose_67_perm_0, x = var_729)[name = string("transpose_82")];
            tensor<fp32, [?, 12, ?, 32]> transpose_66 = transpose(perm = transpose_66_perm_0, x = var_723)[name = string("transpose_83")];
            tensor<fp32, [?, 12, ?, ?]> attention_scores_37 = matmul(transpose_x = attention_scores_37_transpose_x_0, transpose_y = attention_scores_37_transpose_y_0, x = transpose_66, y = transpose_67)[name = string("attention_scores_37")];
            fp32 _inversed_attention_scores_39_y_0 = const()[name = string("_inversed_attention_scores_39_y_0"), val = fp32(0x1.6a09e6p-3)];
            tensor<fp32, [?, 12, ?, ?]> _inversed_attention_scores_39 = mul(x = attention_scores_37, y = _inversed_attention_scores_39_y_0)[name = string("_inversed_attention_scores_39")];
            tensor<fp32, [?, 12, ?, ?]> input_189 = add(x = _inversed_attention_scores_39, y = attention_mask_1)[name = string("input_189")];
            tensor<fp32, [?, 12, ?, ?]> input_191 = softmax(axis = var_13, x = input_189)[name = string("input_191")];
            bool context_layer_37_transpose_x_0 = const()[name = string("context_layer_37_transpose_x_0"), val = bool(false)];
            bool context_layer_37_transpose_y_0 = const()[name = string("context_layer_37_transpose_y_0"), val = bool(false)];
            tensor<fp32, [?, 12, ?, 32]> value_layer_39 = transpose(perm = value_layer_39_perm_0, x = var_735)[name = string("transpose_81")];
            tensor<fp32, [?, 12, ?, 32]> context_layer_37 = matmul(transpose_x = context_layer_37_transpose_x_0, transpose_y = context_layer_37_transpose_y_0, x = input_191, y = value_layer_39)[name = string("context_layer_37")];
            tensor<int32, [4]> var_745 = const()[name = string("op_745"), val = tensor<int32, [4]>([0, 2, 1, 3])];
            tensor<fp32, [?, ?, 12, 32]> var_746 = transpose(perm = var_745, x = context_layer_37)[name = string("transpose_80")];
            tensor<int32, [4]> var_748_shape = shape(x = var_746)[name = string("op_748_shape")];
            int32 gather_31_batch_dims_0 = const()[name = string("gather_31_batch_dims_0"), val = int32(0)];
            bool gather_31_validate_indices_0 = const()[name = string("gather_31_validate_indices_0"), val = bool(false)];
            int32 select_33 = const()[name = string("select_33"), val = int32(0)];
            int32 gather_31_axis_0 = const()[name = string("gather_31_axis_0"), val = int32(0)];
            int32 gather_31 = gather(axis = gather_31_axis_0, batch_dims = gather_31_batch_dims_0, indices = select_33, validate_indices = gather_31_validate_indices_0, x = var_748_shape)[name = string("gather_31")];
            int32 gather_32_batch_dims_0 = const()[name = string("gather_32_batch_dims_0"), val = int32(0)];
            bool gather_32_validate_indices_0 = const()[name = string("gather_32_validate_indices_0"), val = bool(false)];
            int32 select_34 = const()[name = string("select_34"), val = int32(1)];
            int32 gather_32_axis_0 = const()[name = string("gather_32_axis_0"), val = int32(0)];
            int32 gather_32 = gather(axis = gather_32_axis_0, batch_dims = gather_32_batch_dims_0, indices = select_34, validate_indices = gather_32_validate_indices_0, x = var_748_shape)[name = string("gather_32")];
            int32 concat_42_axis_0 = const()[name = string("concat_42_axis_0"), val = int32(0)];
            bool concat_42_interleave_0 = const()[name = string("concat_42_interleave_0"), val = bool(false)];
            tensor<int32, [3]> concat_42 = concat(axis = concat_42_axis_0, interleave = concat_42_interleave_0, values = (gather_31, gather_32, var_16))[name = string("concat_42")];
            tensor<fp32, [?, ?, 384]> input_193 = reshape(shape = concat_42, x = var_746)[name = string("input_193")];
            tensor<fp32, [?, ?, 384]> input_195 = linear(bias = model_encoder_layer_9_attention_output_dense_bias, weight = model_encoder_layer_9_attention_output_dense_weight_quantized, x = input_193)[name = string("linear_57")];
            tensor<fp32, [?, ?, 384]> input_197 = add(x = input_195, y = hidden_states_55)[name = string("input_197")];
            tensor<int32, [1]> input_199_axes_0 = const()[name = string("input_199_axes_0"), val = tensor<int32, [1]>([-1])];
            tensor<fp32, [?, ?, 384]> input_199 = layer_norm(axes = input_199_axes_0, beta = model_encoder_layer_9_attention_output_LayerNorm_bias, epsilon = var_15, gamma = model_encoder_layer_9_attention_output_LayerNorm_weight, x = input_197)[name = string("input_199")];
            tensor<fp32, [?, ?, 1536]> input_201 = linear(bias = model_encoder_layer_9_intermediate_dense_bias, weight = model_encoder_layer_9_intermediate_dense_weight_quantized, x = input_199)[name = string("linear_58")];
            string input_203_mode_0 = const()[name = string("input_203_mode_0"), val = string("EXACT")];
            tensor<fp32, [?, ?, 1536]> input_203 = gelu(mode = input_203_mode_0, x = input_201)[name = string("input_203")];
            tensor<fp32, [?, ?, 384]> input_205 = linear(bias = model_encoder_layer_9_output_dense_bias, weight = model_encoder_layer_9_output_dense_weight_quantized, x = input_203)[name = string("linear_59")];
            tensor<fp32, [?, ?, 384]> input_207 = add(x = input_205, y = input_199)[name = string("input_207")];
            tensor<int32, [1]> hidden_states_61_axes_0 = const()[name = string("hidden_states_61_axes_0"), val = tensor<int32, [1]>([-1])];
            tensor<fp32, [?, ?, 384]> hidden_states_61 = layer_norm(axes = hidden_states_61_axes_0, beta = model_encoder_layer_9_output_LayerNorm_bias, epsilon = var_15, gamma = model_encoder_layer_9_output_LayerNorm_weight, x = input_207)[name = string("hidden_states_61")];
            tensor<int32, [3]> var_787_shape = shape(x = hidden_states_61)[name = string("op_787_shape")];
            int32 gather_33_batch_dims_0 = const()[name = string("gather_33_batch_dims_0"), val = int32(0)];
            bool gather_33_validate_indices_0 = const()[name = string("gather_33_validate_indices_0"), val = bool(false)];
            int32 select_35 = const()[name = string("select_35"), val = int32(0)];
            int32 gather_33_axis_0 = const()[name = string("gather_33_axis_0"), val = int32(0)];
            int32 gather_33 = gather(axis = gather_33_axis_0, batch_dims = gather_33_batch_dims_0, indices = select_35, validate_indices = gather_33_validate_indices_0, x = var_787_shape)[name = string("gather_33")];
            tensor<fp32, [?, ?, 384]> query_layer_41 = linear(bias = model_encoder_layer_10_attention_self_query_bias, weight = model_encoder_layer_10_attention_self_query_weight_quantized, x = hidden_states_61)[name = string("linear_60")];
            int32 concat_43_axis_0 = const()[name = string("concat_43_axis_0"), val = int32(0)];
            bool concat_43_interleave_0 = const()[name = string("concat_43_interleave_0"), val = bool(false)];
            tensor<int32, [4]> concat_43 = concat(axis = concat_43_axis_0, interleave = concat_43_interleave_0, values = (gather_33, var_13, var_7, var_6))[name = string("concat_43")];
            tensor<fp32, [?, ?, 12, 32]> var_792 = reshape(shape = concat_43, x = query_layer_41)[name = string("op_792")];
            tensor<fp32, [?, ?, 384]> key_layer_41 = linear(bias = model_encoder_layer_10_attention_self_key_bias, weight = model_encoder_layer_10_attention_self_key_weight_quantized, x = hidden_states_61)[name = string("linear_61")];
            tensor<fp32, [?, ?, 12, 32]> var_798 = reshape(shape = concat_43, x = key_layer_41)[name = string("op_798")];
            tensor<fp32, [?, ?, 384]> value_layer_41 = linear(bias = model_encoder_layer_10_attention_self_value_bias, weight = model_encoder_layer_10_attention_self_value_weight_quantized, x = hidden_states_61)[name = string("linear_62")];
            tensor<fp32, [?, ?, 12, 32]> var_804 = reshape(shape = concat_43, x = value_layer_41)[name = string("op_804")];
            tensor<int32, [4]> value_layer_43_perm_0 = const()[name = string("value_layer_43_perm_0"), val = tensor<int32, [4]>([0, 2, -3, -1])];
            bool attention_scores_41_transpose_x_0 = const()[name = string("attention_scores_41_transpose_x_0"), val = bool(false)];
            bool attention_scores_41_transpose_y_0 = const()[name = string("attention_scores_41_transpose_y_0"), val = bool(false)];
            tensor<int32, [4]> transpose_68_perm_0 = const()[name = string("transpose_68_perm_0"), val = tensor<int32, [4]>([0, 2, -3, -1])];
            tensor<int32, [4]> transpose_69_perm_0 = const()[name = string("transpose_69_perm_0"), val = tensor<int32, [4]>([0, 2, -1, -3])];
            tensor<fp32, [?, 12, 32, ?]> transpose_69 = transpose(perm = transpose_69_perm_0, x = var_798)[name = string("transpose_78")];
            tensor<fp32, [?, 12, ?, 32]> transpose_68 = transpose(perm = transpose_68_perm_0, x = var_792)[name = string("transpose_79")];
            tensor<fp32, [?, 12, ?, ?]> attention_scores_41 = matmul(transpose_x = attention_scores_41_transpose_x_0, transpose_y = attention_scores_41_transpose_y_0, x = transpose_68, y = transpose_69)[name = string("attention_scores_41")];
            fp32 _inversed_attention_scores_43_y_0 = const()[name = string("_inversed_attention_scores_43_y_0"), val = fp32(0x1.6a09e6p-3)];
            tensor<fp32, [?, 12, ?, ?]> _inversed_attention_scores_43 = mul(x = attention_scores_41, y = _inversed_attention_scores_43_y_0)[name = string("_inversed_attention_scores_43")];
            tensor<fp32, [?, 12, ?, ?]> input_209 = add(x = _inversed_attention_scores_43, y = attention_mask_1)[name = string("input_209")];
            tensor<fp32, [?, 12, ?, ?]> input_211 = softmax(axis = var_13, x = input_209)[name = string("input_211")];
            bool context_layer_41_transpose_x_0 = const()[name = string("context_layer_41_transpose_x_0"), val = bool(false)];
            bool context_layer_41_transpose_y_0 = const()[name = string("context_layer_41_transpose_y_0"), val = bool(false)];
            tensor<fp32, [?, 12, ?, 32]> value_layer_43 = transpose(perm = value_layer_43_perm_0, x = var_804)[name = string("transpose_77")];
            tensor<fp32, [?, 12, ?, 32]> context_layer_41 = matmul(transpose_x = context_layer_41_transpose_x_0, transpose_y = context_layer_41_transpose_y_0, x = input_211, y = value_layer_43)[name = string("context_layer_41")];
            tensor<int32, [4]> var_814 = const()[name = string("op_814"), val = tensor<int32, [4]>([0, 2, 1, 3])];
            tensor<fp32, [?, ?, 12, 32]> var_815 = transpose(perm = var_814, x = context_layer_41)[name = string("transpose_76")];
            tensor<int32, [4]> var_817_shape = shape(x = var_815)[name = string("op_817_shape")];
            int32 gather_34_batch_dims_0 = const()[name = string("gather_34_batch_dims_0"), val = int32(0)];
            bool gather_34_validate_indices_0 = const()[name = string("gather_34_validate_indices_0"), val = bool(false)];
            int32 select_36 = const()[name = string("select_36"), val = int32(0)];
            int32 gather_34_axis_0 = const()[name = string("gather_34_axis_0"), val = int32(0)];
            int32 gather_34 = gather(axis = gather_34_axis_0, batch_dims = gather_34_batch_dims_0, indices = select_36, validate_indices = gather_34_validate_indices_0, x = var_817_shape)[name = string("gather_34")];
            int32 gather_35_batch_dims_0 = const()[name = string("gather_35_batch_dims_0"), val = int32(0)];
            bool gather_35_validate_indices_0 = const()[name = string("gather_35_validate_indices_0"), val = bool(false)];
            int32 select_37 = const()[name = string("select_37"), val = int32(1)];
            int32 gather_35_axis_0 = const()[name = string("gather_35_axis_0"), val = int32(0)];
            int32 gather_35 = gather(axis = gather_35_axis_0, batch_dims = gather_35_batch_dims_0, indices = select_37, validate_indices = gather_35_validate_indices_0, x = var_817_shape)[name = string("gather_35")];
            int32 concat_46_axis_0 = const()[name = string("concat_46_axis_0"), val = int32(0)];
            bool concat_46_interleave_0 = const()[name = string("concat_46_interleave_0"), val = bool(false)];
            tensor<int32, [3]> concat_46 = concat(axis = concat_46_axis_0, interleave = concat_46_interleave_0, values = (gather_34, gather_35, var_16))[name = string("concat_46")];
            tensor<fp32, [?, ?, 384]> input_213 = reshape(shape = concat_46, x = var_815)[name = string("input_213")];
            tensor<fp32, [?, ?, 384]> input_215 = linear(bias = model_encoder_layer_10_attention_output_dense_bias, weight = model_encoder_layer_10_attention_output_dense_weight_quantized, x = input_213)[name = string("linear_63")];
            tensor<fp32, [?, ?, 384]> input_217 = add(x = input_215, y = hidden_states_61)[name = string("input_217")];
            tensor<int32, [1]> input_219_axes_0 = const()[name = string("input_219_axes_0"), val = tensor<int32, [1]>([-1])];
            tensor<fp32, [?, ?, 384]> input_219 = layer_norm(axes = input_219_axes_0, beta = model_encoder_layer_10_attention_output_LayerNorm_bias, epsilon = var_15, gamma = model_encoder_layer_10_attention_output_LayerNorm_weight, x = input_217)[name = string("input_219")];
            tensor<fp32, [?, ?, 1536]> input_221 = linear(bias = model_encoder_layer_10_intermediate_dense_bias, weight = model_encoder_layer_10_intermediate_dense_weight_quantized, x = input_219)[name = string("linear_64")];
            string input_223_mode_0 = const()[name = string("input_223_mode_0"), val = string("EXACT")];
            tensor<fp32, [?, ?, 1536]> input_223 = gelu(mode = input_223_mode_0, x = input_221)[name = string("input_223")];
            tensor<fp32, [?, ?, 384]> input_225 = linear(bias = model_encoder_layer_10_output_dense_bias, weight = model_encoder_layer_10_output_dense_weight_quantized, x = input_223)[name = string("linear_65")];
            tensor<fp32, [?, ?, 384]> input_227 = add(x = input_225, y = input_219)[name = string("input_227")];
            tensor<int32, [1]> hidden_states_67_axes_0 = const()[name = string("hidden_states_67_axes_0"), val = tensor<int32, [1]>([-1])];
            tensor<fp32, [?, ?, 384]> hidden_states_67 = layer_norm(axes = hidden_states_67_axes_0, beta = model_encoder_layer_10_output_LayerNorm_bias, epsilon = var_15, gamma = model_encoder_layer_10_output_LayerNorm_weight, x = input_227)[name = string("hidden_states_67")];
            tensor<int32, [3]> var_856_shape = shape(x = hidden_states_67)[name = string("op_856_shape")];
            int32 gather_36_batch_dims_0 = const()[name = string("gather_36_batch_dims_0"), val = int32(0)];
            bool gather_36_validate_indices_0 = const()[name = string("gather_36_validate_indices_0"), val = bool(false)];
            int32 select_38 = const()[name = string("select_38"), val = int32(0)];
            int32 gather_36_axis_0 = const()[name = string("gather_36_axis_0"), val = int32(0)];
            int32 gather_36 = gather(axis = gather_36_axis_0, batch_dims = gather_36_batch_dims_0, indices = select_38, validate_indices = gather_36_validate_indices_0, x = var_856_shape)[name = string("gather_36")];
            tensor<fp32, [?, ?, 384]> query_layer_45 = linear(bias = model_encoder_layer_11_attention_self_query_bias, weight = model_encoder_layer_11_attention_self_query_weight_quantized, x = hidden_states_67)[name = string("linear_66")];
            int32 concat_47_axis_0 = const()[name = string("concat_47_axis_0"), val = int32(0)];
            bool concat_47_interleave_0 = const()[name = string("concat_47_interleave_0"), val = bool(false)];
            tensor<int32, [4]> concat_47 = concat(axis = concat_47_axis_0, interleave = concat_47_interleave_0, values = (gather_36, var_13, var_7, var_6))[name = string("concat_47")];
            tensor<fp32, [?, ?, 12, 32]> var_861 = reshape(shape = concat_47, x = query_layer_45)[name = string("op_861")];
            tensor<fp32, [?, ?, 384]> key_layer_45 = linear(bias = model_encoder_layer_11_attention_self_key_bias, weight = model_encoder_layer_11_attention_self_key_weight_quantized, x = hidden_states_67)[name = string("linear_67")];
            tensor<fp32, [?, ?, 12, 32]> var_867 = reshape(shape = concat_47, x = key_layer_45)[name = string("op_867")];
            tensor<fp32, [?, ?, 384]> value_layer_45 = linear(bias = model_encoder_layer_11_attention_self_value_bias, weight = model_encoder_layer_11_attention_self_value_weight_quantized, x = hidden_states_67)[name = string("linear_68")];
            tensor<fp32, [?, ?, 12, 32]> var_873 = reshape(shape = concat_47, x = value_layer_45)[name = string("op_873")];
            tensor<int32, [4]> value_layer_perm_0 = const()[name = string("value_layer_perm_0"), val = tensor<int32, [4]>([0, 2, -3, -1])];
            bool attention_scores_45_transpose_x_0 = const()[name = string("attention_scores_45_transpose_x_0"), val = bool(false)];
            bool attention_scores_45_transpose_y_0 = const()[name = string("attention_scores_45_transpose_y_0"), val = bool(false)];
            tensor<int32, [4]> transpose_70_perm_0 = const()[name = string("transpose_70_perm_0"), val = tensor<int32, [4]>([0, 2, -3, -1])];
            tensor<int32, [4]> transpose_71_perm_0 = const()[name = string("transpose_71_perm_0"), val = tensor<int32, [4]>([0, 2, -1, -3])];
            tensor<fp32, [?, 12, 32, ?]> transpose_71 = transpose(perm = transpose_71_perm_0, x = var_867)[name = string("transpose_74")];
            tensor<fp32, [?, 12, ?, 32]> transpose_70 = transpose(perm = transpose_70_perm_0, x = var_861)[name = string("transpose_75")];
            tensor<fp32, [?, 12, ?, ?]> attention_scores_45 = matmul(transpose_x = attention_scores_45_transpose_x_0, transpose_y = attention_scores_45_transpose_y_0, x = transpose_70, y = transpose_71)[name = string("attention_scores_45")];
            fp32 _inversed_attention_scores_y_0 = const()[name = string("_inversed_attention_scores_y_0"), val = fp32(0x1.6a09e6p-3)];
            tensor<fp32, [?, 12, ?, ?]> _inversed_attention_scores = mul(x = attention_scores_45, y = _inversed_attention_scores_y_0)[name = string("_inversed_attention_scores")];
            tensor<fp32, [?, 12, ?, ?]> input_229 = add(x = _inversed_attention_scores, y = attention_mask_1)[name = string("input_229")];
            tensor<fp32, [?, 12, ?, ?]> input_231 = softmax(axis = var_13, x = input_229)[name = string("input_231")];
            bool context_layer_45_transpose_x_0 = const()[name = string("context_layer_45_transpose_x_0"), val = bool(false)];
            bool context_layer_45_transpose_y_0 = const()[name = string("context_layer_45_transpose_y_0"), val = bool(false)];
            tensor<fp32, [?, 12, ?, 32]> value_layer = transpose(perm = value_layer_perm_0, x = var_873)[name = string("transpose_73")];
            tensor<fp32, [?, 12, ?, 32]> context_layer_45 = matmul(transpose_x = context_layer_45_transpose_x_0, transpose_y = context_layer_45_transpose_y_0, x = input_231, y = value_layer)[name = string("context_layer_45")];
            tensor<int32, [4]> var_883 = const()[name = string("op_883"), val = tensor<int32, [4]>([0, 2, 1, 3])];
            tensor<fp32, [?, ?, 12, 32]> var_884 = transpose(perm = var_883, x = context_layer_45)[name = string("transpose_72")];
            tensor<int32, [4]> var_886_shape = shape(x = var_884)[name = string("op_886_shape")];
            int32 gather_37_batch_dims_0 = const()[name = string("gather_37_batch_dims_0"), val = int32(0)];
            bool gather_37_validate_indices_0 = const()[name = string("gather_37_validate_indices_0"), val = bool(false)];
            int32 select_39 = const()[name = string("select_39"), val = int32(0)];
            int32 gather_37_axis_0 = const()[name = string("gather_37_axis_0"), val = int32(0)];
            int32 gather_37 = gather(axis = gather_37_axis_0, batch_dims = gather_37_batch_dims_0, indices = select_39, validate_indices = gather_37_validate_indices_0, x = var_886_shape)[name = string("gather_37")];
            int32 gather_38_batch_dims_0 = const()[name = string("gather_38_batch_dims_0"), val = int32(0)];
            bool gather_38_validate_indices_0 = const()[name = string("gather_38_validate_indices_0"), val = bool(false)];
            int32 select_40 = const()[name = string("select_40"), val = int32(1)];
            int32 gather_38_axis_0 = const()[name = string("gather_38_axis_0"), val = int32(0)];
            int32 gather_38 = gather(axis = gather_38_axis_0, batch_dims = gather_38_batch_dims_0, indices = select_40, validate_indices = gather_38_validate_indices_0, x = var_886_shape)[name = string("gather_38")];
            int32 concat_50_axis_0 = const()[name = string("concat_50_axis_0"), val = int32(0)];
            bool concat_50_interleave_0 = const()[name = string("concat_50_interleave_0"), val = bool(false)];
            tensor<int32, [3]> concat_50 = concat(axis = concat_50_axis_0, interleave = concat_50_interleave_0, values = (gather_37, gather_38, var_16))[name = string("concat_50")];
            tensor<fp32, [?, ?, 384]> input_233 = reshape(shape = concat_50, x = var_884)[name = string("input_233")];
            tensor<fp32, [?, ?, 384]> input_235 = linear(bias = model_encoder_layer_11_attention_output_dense_bias, weight = model_encoder_layer_11_attention_output_dense_weight_quantized, x = input_233)[name = string("linear_69")];
            tensor<fp32, [?, ?, 384]> input_237 = add(x = input_235, y = hidden_states_67)[name = string("input_237")];
            tensor<int32, [1]> input_239_axes_0 = const()[name = string("input_239_axes_0"), val = tensor<int32, [1]>([-1])];
            tensor<fp32, [?, ?, 384]> input_239 = layer_norm(axes = input_239_axes_0, beta = model_encoder_layer_11_attention_output_LayerNorm_bias, epsilon = var_15, gamma = model_encoder_layer_11_attention_output_LayerNorm_weight, x = input_237)[name = string("input_239")];
            tensor<fp32, [?, ?, 1536]> input_241 = linear(bias = model_encoder_layer_11_intermediate_dense_bias, weight = model_encoder_layer_11_intermediate_dense_weight_quantized, x = input_239)[name = string("linear_70")];
            string input_243_mode_0 = const()[name = string("input_243_mode_0"), val = string("EXACT")];
            tensor<fp32, [?, ?, 1536]> input_243 = gelu(mode = input_243_mode_0, x = input_241)[name = string("input_243")];
            tensor<fp32, [?, ?, 384]> input_245 = linear(bias = model_encoder_layer_11_output_dense_bias, weight = model_encoder_layer_11_output_dense_weight_quantized, x = input_243)[name = string("linear_71")];
            tensor<fp32, [?, ?, 384]> input_247 = add(x = input_245, y = input_239)[name = string("input_247")];
            tensor<int32, [1]> hidden_states_axes_0 = const()[name = string("hidden_states_axes_0"), val = tensor<int32, [1]>([-1])];
            tensor<fp32, [?, ?, 384]> hidden_states = layer_norm(axes = hidden_states_axes_0, beta = model_encoder_layer_11_output_LayerNorm_bias, epsilon = var_15, gamma = model_encoder_layer_11_output_LayerNorm_weight, x = input_247)[name = string("hidden_states")];
            tensor<int32, [3]> var_924_begin_0 = const()[name = string("op_924_begin_0"), val = tensor<int32, [3]>([0, 0, 0])];
            tensor<int32, [3]> var_924_end_0 = const()[name = string("op_924_end_0"), val = tensor<int32, [3]>([0, 1, 384])];
            tensor<bool, [3]> var_924_end_mask_0 = const()[name = string("op_924_end_mask_0"), val = tensor<bool, [3]>([true, false, true])];
            tensor<bool, [3]> var_924_squeeze_mask_0 = const()[name = string("op_924_squeeze_mask_0"), val = tensor<bool, [3]>([false, true, false])];
            tensor<fp32, [?, 384]> var_924 = slice_by_index(begin = var_924_begin_0, end = var_924_end_0, end_mask = var_924_end_mask_0, squeeze_mask = var_924_squeeze_mask_0, x = hidden_states)[name = string("op_924")];
            tensor<int32, [1]> var_932 = const()[name = string("op_932"), val = tensor<int32, [1]>([1])];
            bool var_933 = const()[name = string("op_933"), val = bool(true)];
            tensor<fp32, [?, 1]> var_935 = reduce_l2_norm(axes = var_932, keep_dims = var_933, x = var_924)[name = string("op_935")];
            fp32 var_936 = const()[name = string("op_936"), val = fp32(0x1.197998p-40)];
            fp32 const_0 = const()[name = string("const_0"), val = fp32(0x1.fffffep+127)];
            tensor<fp32, [?, 1]> clip_0 = clip(alpha = var_936, beta = const_0, x = var_935)[name = string("clip_0")];
            tensor<fp32, [?, 384]> embeddings = real_div(x = var_924, y = clip_0)[name = string("op_939")];
        } -> (embeddings);
}